Assets/Scripts/ML Scripts/DriveFull.onnx (onnx, 334978 bytes, 13 tensors)

82 f4 [21]
000000 e0 01 80 3e 9e 01 80 3e e1 01 95 3e 6c 06 83 3e
       0.2500143 0.25001234 0.29102996 0.25590837
000010 2f 06 83 3e 72 1d 95 3e 9c 5f 8c 3e 65 5f 8c 3e
       0.25590655 0.29124027 0.27416694 0.2741653
000020 2a db 97 3e 0d 74 a6 3e e3 73 a6 3e 26 93 9c 3e
       0.29659396 0.32510415 0.3251029 0.30581015
000030 ad e0 b3 3e 88 e0 b3 3e 7e c2 9f 3e 31 35 e3 3e
       0.35132352 0.3513224 0.31203073 0.4437652
000040 1d 35 e3 3e 24 5f af 3e 46 19 ee 3e 3b 19 ee 3e
       0.4437646 0.34252274 0.46503657 0.46503624
000050 80 04 b3 3e
       0.3496437

85 f4 [39]
000000 18 fa 37 3e db fa 37 3e 45 ab 7c 3d b1 80 f8 3e
       0.17966497 0.17966788 0.061686773 0.48535684
000010 b7 80 f8 3e f8 a2 3e 3e f8 20 f9 3e ed 20 f9 3e
       0.48535702 0.18616855 0.48657966 0.48657933
000020 ce 81 14 3e 94 aa 1b 3e ac a9 1b 3e 6a 47 26 3e
       0.14502642 0.15201789 0.15201443 0.1623818
000030 71 fe 29 3e 9d fd 29 3e de d7 20 3e 63 a8 bc 3d
       0.16600968 0.16600652 0.15707347 0.09211805
000040 49 a5 bc 3d ee 2a ea 3d 29 8a 0a 3e 20 89 0a 3e
       0.09211213 0.114339694 0.13529266 0.13528872
000050 af 07 02 3e 1e 85 cc 3d 45 82 cc 3d c1 7e de 3d
       0.12698244 0.099863276 0.099857844 0.1086402
000060 ba 94 12 3e c1 93 12 3e bb 2d 00 3e 9d 94 ce 3d
       0.14314547 0.14314176 0.12517445 0.100869395
000070 cc 91 ce 3d c0 57 dd 3d d4 b5 14 3e de b4 14 3e
       0.10086402 0.108077526 0.14522487 0.1452212
000080 c1 1c 00 3e 46 27 d9 3d 98 24 d9 3d 54 41 e4 3d
       0.12510969 0.10603194 0.10602683 0.11145273
000090 41 27 13 3e 4c 26 13 3e d4 95 ff 3d
       0.14370443 0.14370078 0.12479749

action_model._continuous_distribution.log_sigma f4 [1, 2]
000000 18 7a 3a c0 cf ae 2f c0
       -2.913702 -2.7450445

action_model._continuous_distribution.mu.bias f4 [2]
000000 bb 09 de 3d db 35 0c bb
       0.108417 -0.0021394405

action_model._continuous_distribution.mu.weight f4 [2, 256]
000000 33 8b 4e bb 70 81 3e bd f5 1c 75 3a 33 13 aa bb
       -0.0031516075 -0.04651016 0.0009350323 -0.005190277
000010 52 15 ae bc d4 49 1b bb ea 8c 70 b9 18 5b ac ba
       -0.0212504 -0.0023695128 -0.00022940678 -0.0013149707
000020 78 72 6f 3b 29 07 80 ba 2c f7 25 3c 04 5e 4c bd
       0.0036536735 -0.0009767759 0.010129731 -0.049894348
000030 ba 2c 38 bd 34 a7 1d bd d6 78 fb ba 0c cd dd bb
       -0.04496453 -0.038489535 -0.0019185792 -0.0067688283
000040 6a de ca b9 7b dc a6 ba 5d e3 35 ba 4c 99 a5 38
       -0.00038694154 -0.0012730503 -0.0006938482 7.896367e-05
000050 2f 2d f3 bb 7b 98 f8 ba 0d e5 b3 38 6c 7b a5 38
       -0.007421158 -0.0018966341 8.578049e-05 7.890802e-05
000060 01 91 01 39 b5 51 c6 bc ad a7 4b bb aa b4 75 bb
       0.00012356417 -0.024208883 -0.0031075284 -0.0037491717
000070 ef 18 83 bb 36 7f 55 bd 13 dd 66 3c a2 e6 32 3a
       -0.004000775 -0.05212327 0.014090794 0.0006824528
000080 a2 fd 0a bb 2a 16 12 37 60 4a 7f 38 9c 75 9c bd
       -0.0021208306 8.707439e-06 6.0866005e-05 -0.0763962
000090 c7 6b 9f 3a f6 05 91 3a a6 66 38 ba c1 7a 0e 3a
       0.0012162857 0.0011064399 -0.0007034339 0.0005435162
0000a0 aa 0f 65 bd 01 26 14 ba d7 38 a0 39 58 a7 22 bd
       -0.05592314 -0.0005651415 0.00030559927 -0.039710373
0000b0 28 85 ff b7 d1 8a 63 bd 33 b2 ea 39 ae f5 bf ba
       -3.0460375e-05 -0.055552308 0.00044764727 -0.0014645362
0000c0 94 8b ba 3a 30 1f 90 39 fb 43 0f bd d0 24 3a bb
       0.0014232271 0.00027489057 -0.03497694 -0.002840329
0000d0 92 53 6a bc 20 39 48 bb 4e 10 c1 ba 9f a7 89 bb
       -0.014302151 -0.0030551627 -0.0014729591 -0.00420089
0000e0 05 d9 15 bb 8e e5 59 39 72 04 09 bb 38 de d1 36
       -0.002286495 0.00020780248 -0.002090719 6.254555e-06
0000f0 06 a3 30 bb 9f ca 1f 3b 2f d1 5b bd 88 9a 06 bb
       -0.0026952638 0.0024382246 -0.05366629 -0.0020538885
000100 c8 60 a0 37 b8 d7 2c ba 4c 53 c4 ba f6 ab 3f 3b
       1.9118554e-05 -0.0006593424 -0.0014978438 0.0029246784
000110 11 8e 84 3b 13 0d 15 3b db e6 4e 3a 17 2f 45 3a
       0.004045256 0.0022743389 0.00078926765 0.00075219705
000120 c4 aa 24 38 b6 99 46 bd 84 08 57 ba 9c 06 1d bd
       3.9259685e-05 -0.048486434 -0.0008202868 -0.03833638
000130 57 a0 16 b8 ba cb ba 3a 6e 06 22 3a af 56 a0 bd
       -3.5912115e-05 0.0014251389 0.00061807677 -0.078290336
000140 3d 22 a1 ba 42 27 c2 ba d0 6b f5 39 a6 58 bc 3a
       -0.0012293529 -0.0014812725 0.00046810368 0.0014369681
000150 f0 25 98 3b e6 ad c3 b7 cf cd 02 bd 74 84 aa bc
       0.0046431944 -2.332679e-05 -0.031934556 -0.020815112
000160 ae ac c5 37 1c c9 bc ba d6 ff 12 3b 4a 6b 3d ba
       2.356464e-05 -0.0014403197 0.0022430322 -0.0007225765
000170 6e 93 d0 ba bf 91 0b bd 44 b4 9d ba 05 69 ef bc
       -0.0015913078 -0.03407454 -0.0012031873 -0.029224882
000180 52 d8 88 bd c3 dc 27 3b 9c 8e 8c bd 46 a7 58 39
       -0.06681885 0.0025613762 -0.06863138 0.0002066168
000190 a6 f2 86 3b f5 15 1d bb f4 db d4 ba 12 66 42 39
       0.0041182814 -0.0023969386 -0.0016239868 0.00018539306
0001a0 d5 12 9d b9 e9 46 6a bb af 20 b9 ba 8f e5 cb ba
       -0.00029959404 -0.0035747832 -0.001412412 -0.0015556085
0001b0 30 2f 2e bd 2e 07 80 3a 92 c3 24 b9 92 c2 c5 3a
       -0.04252547 0.0009767765 -0.00015713114 0.0015087894
0001c0 01 95 fc ba ae 9a b7 bc 87 19 f9 b9 f7 86 5e bd
       -0.0019270481 -0.022412624 -0.00047512 -0.05432793
0001d0 fe f1 88 b9 73 6d 79 3a 8f e0 0c 3c 4d 3a 01 3a
       -0.0002612024 0.00095149054 0.008598461 0.0004929647
0001e0 b5 bf 07 bc 6b 05 57 3a 0c aa ad b9 8a ea b6 39
       -0.008285453 0.00082024065 -0.00033123826 0.0003488849
0001f0 32 af 20 bd a3 e3 05 bb 90 43 60 38 fe da ed b9
       -0.03922958 -0.0020429872 5.3468684e-05 -0.00045367324
000200 7d d9 14 b9 64 54 82 bd 41 c6 b0 bd 07 3b fa ba
       -0.000141954 -0.063637525 -0.08631564 -0.0019091078
000210 0d aa b3 bb 93 95 53 bb 35 c0 dc bc 93 dd 17 3a
       -0.005482918 -0.0032285198 -0.02694712 0.000579321
000220 1a f6 50 bd 07 d1 d0 ba 02 4c b6 bd 85 53 99 3a
       -0.05101595 -0.0015931436 -0.08901216 0.0011697864
000230 39 d7 76 b9 e5 c1 33 bd b2 90 7e bd 02 a1 e1 bc
       -0.00023540565 -0.043886084 -0.06214971 -0.027542595
000240 04 02 51 ba 72 5c 53 39 92 9a ad ba 6e cc 3c bb
       -0.00079730176 0.00020156967 -0.0013244918 -0.0028808373
000250 76 de fc 39 e3 f9 fc ba f4 ae 3e b8 98 30 29 bb
       0.00048230932 -0.0019300546 -4.5462468e-05 -0.0025816318
000260 fb f6 d1 3b a1 dc 80 3a 9a 50 7e 39 d2 4b 97 ba
       0.006407616 0.0009831378 0.00024253354 -0.0011542982
000270 ff 4f cb bb b9 83 8a ba 13 f7 49 bb 78 91 26 3d
       -0.0062046046 -0.0010567821 -0.0030817434 0.040666074
000280 8e 72 24 bd e2 66 79 b8 b1 01 9f ba 5d 6a ed ba
       -0.04014831 -5.9462043e-05 -0.0012131241 -0.0018113364
000290 f6 2f 38 3b 87 7b 7f bd 83 41 19 3b 38 d0 ae ba
       0.0028104759 -0.062373664 0.0023384995 -0.00133372
0002a0 d2 60 91 3a 4e 9e bc 3b d7 54 63 bd 49 68 a8 3a
       0.0011091477 0.005756176 -0.05550083 0.0012848462
0002b0 cd f9 9c 3a 49 9f e2 38 5c 7d 00 ba 7f e1 37 ba
       0.0011976302 0.00010806189 -0.00049014925 -0.00070144975
0002c0 9b 3f dc ba d4 4f ad bd 85 4a 1b bb d2 dc 99 bc
       -0.0016803624 -0.08462492 -0.002369554 -0.018782053
0002d0 ab cc 99 3b cf d0 f4 3a e5 71 43 3a cd 68 29 38
       0.004693588 0.0018677952 0.0007455631 4.0390343e-05
0002e0 1a 6d 1e 3a 90 e1 e9 bb 9b 78 d7 b9 62 b8 52 ba
       0.0006043479 -0.007137485 -0.00041097854 -0.00080383394
0002f0 98 f8 37 bd c1 05 96 ba e4 a8 13 3a 23 fb 8a bd
       -0.04491481 -0.0011445807 0.00056327716 -0.06786182
000300 4c 41 a9 bd 55 e6 13 3a 92 4e 88 bd 39 c1 ee ba
       -0.082644075 0.0005641927 -0.06655611 -0.0018215544
000310 1d cf df bb 30 40 72 bd 27 e1 c8 ba 38 98 a1 bd
       -0.0068301097 -0.059143245 -0.001532589 -0.078903615
000320 ed 68 08 bb b7 0f ac b9 0a 33 81 3b dd 5c 72 3b
       -0.0020814494 -0.00032818105 0.003942852 0.003698162
000330 82 26 49 39 57 dd 19 3c 7f 71 ba 39 f9 06 6b 3a
       0.00019183199 0.00939115 0.00035561246 0.00089655776
000340 bc 4b cd 39 5e 62 38 bb b9 53 3b bd 0c c6 a6 3a
       0.00039157073 -0.0028134803 -0.04573414 0.0012723817
000350 92 a5 3b b7 48 e8 38 3a 72 0e 2f bd 0c 60 9d ba
       -1.1184618e-05 0.00070536556 -0.042738385 -0.0012006774
000360 4a 59 46 bd be d2 1a b9 c5 6a 8d 3a 22 72 c8 bd
       -0.048424996 -0.00014765092 0.0010789266 -0.09787394
000370 2d 6d 50 b9 3f 44 41 3a ca 4e 55 bd 7e 6a 15 ba
       -0.00019877097 0.0007372535 -0.052077092 -0.00056997675
000380 d7 c1 15 ba 6b 24 93 b8 15 f9 dd bb 2a 05 61 bd
       -0.00057127833 -7.0162896e-05 -0.0067740777 -0.054936565
000390 82 0b 4a 3b 48 2b 1d 3a dc af 68 bb 16 f6 70 3b
       0.0030829613 0.0005995524 -0.003550521 0.0036767772
0003a0 98 9a d1 ba dd d0 8d ba 9d d9 a0 bb 94 dd 62 ba
       -0.0015991507 -0.0010819692 -0.004908754 -0.00086542335
0003b0 1d e5 9f ba 4f cd 8f 39 d6 b3 11 bb c6 f0 4d bd
       -0.0012199018 0.00027428052 -0.0022232435 -0.050278448
0003c0 fe d5 3c ba e4 a5 08 3b 7e 8b b1 bd 0c 10 57 b9
       -0.0007203518 0.0020850832 -0.08669184 -0.00020509976
0003d0 26 fa 12 bd 06 b4 f4 3b a4 2f e6 b8 db 6f 0a bb
       -0.03588309 0.0074677495 -0.000109761284 -0.00211238
0003e0 03 c7 cb 3a e2 e7 fa b9 59 13 87 ba 95 d7 bb b9
       0.0015546981 -0.00047856482 -0.0010305449 -0.0003582804
0003f0 72 c2 e7 39 6e 91 12 39 3e 05 f1 38 96 47 ca 38
       0.00044204626 0.00013977822 0.00011492752 9.6454445e-05

action_model._discrete_distribution.branches.0.bias f4 [2]
000000 26 5e 80 3e 7d 38 80 be
       0.2507183 -0.25043097

action_model._discrete_distribution.branches.0.weight f4 [2, 256]
000000 ad 11 ae be 6c 02 86 be 16 f1 9f be 83 2e 0b be
       -0.3399786 -0.26173723 -0.3123862 -0.13591962
000010 6b 56 80 be d6 52 3a 3d ee 0c 35 3e 07 d9 f3 bd
       -0.25065932 0.045489155 0.17680714 -0.11906629
000020 f6 a4 96 be a8 98 3c 3e b8 50 49 be 49 a6 aa be
       -0.2942273 0.18417609 -0.19659698 -0.3332999
000030 89 78 c2 be fb 2a a1 be 29 5a 57 3e c5 68 22 3e
       -0.37982586 -0.31478104 0.21030487 0.15860279
000040 57 ed 29 3e e1 3f 23 bd ff 11 06 3e 6a 73 25 be
       0.16594444 -0.03985584 0.13092802 -0.16157308
000050 b6 e5 99 be 54 87 12 be 28 97 86 3d 00 1a 8c be
       -0.30058068 -0.14309436 0.065717995 -0.27363586
000060 92 f0 08 3e 05 83 89 be 43 60 ae be ef ec 1d be
       0.1337302 -0.26857772 -0.34057817 -0.15422414
000070 cc 9a b2 bd a8 d0 af be 9a 1c cf be 3c 15 01 be
       -0.087209314 -0.3433888 -0.4045151 -0.12605757
000080 4a 6c 09 be e7 de 86 3d b1 86 2d be 86 99 89 be
       -0.13420215 0.06585484 -0.16945912 -0.26874942
000090 39 c6 81 bd 45 1e 89 3d 21 6a 83 be bf 25 49 be
       -0.06336636 0.066952266 -0.25666907 -0.19643305
0000a0 7f 68 74 be f0 f0 1f 3e 22 87 e9 3d 6f e7 c1 be
       -0.23867987 0.15619254 0.11402728 -0.37871882
0000b0 64 e8 39 3e 84 06 9d be e1 70 c2 bd 77 89 a8 bd
       0.18155056 -0.30669034 -0.09494186 -0.08229344
0000c0 25 0a a0 bd 1e 52 6f 3d d4 79 6a be de 6a 83 be
       -0.07814435 0.058427922 -0.22898036 -0.2566747
0000d0 c5 c3 6f be 99 66 39 3e 80 41 20 bd 24 0d 1c be
       -0.23414524 0.18105544 -0.039124966 -0.15239388
0000e0 85 66 e4 3c 47 49 bc 3d 35 84 ec bd c6 6c b8 bd
       0.027880916 0.09193664 -0.11548654 -0.09005122
0000f0 d7 50 54 be 3b 95 88 be c6 bd ae be 3b 62 af be
       -0.20733963 -0.26676354 -0.3412916 -0.3425463
000100 47 58 2b be 1f 35 5d 3d 55 ca 2f be b7 af 8b be
       -0.16732894 0.05400574 -0.17167027 -0.27282497
000110 42 48 a9 3d 2a 6e 41 be 32 f1 e4 3d a4 2c ad bc
       0.08265735 -0.1888968 0.11178817 -0.02113945
000120 d5 0f 20 3d 81 14 c1 be 09 81 38 3d b3 6f 97 be
       0.0390776 -0.37710956 0.045044933 -0.29577407
000130 8f 66 1e be bd 0e f1 be f1 72 04 be a2 03 c0 be
       -0.1546881 -0.47081557 -0.12934472 -0.37502772
000140 d6 8d 0e 3d 86 c4 b9 3d f0 0f fa 3d 62 aa 70 be
       0.034803234 0.09070687 0.12210071 -0.23502496
000150 91 3c c6 3d 5c 2c d2 bd 98 fe 6a be a2 22 b7 be
       0.09679521 -0.10262367 -0.22948682 -0.3576861
000160 df 9e 00 3c 9b 30 4c be 45 51 b7 be ea be ac bd
       0.007850378 -0.19940417 -0.3580419 -0.084348515
000170 bc 6c 0f be fe 82 dc be 15 0f d3 bd 30 54 96 be
       -0.14006323 -0.4306869 -0.10305611 -0.29361105
000180 07 cf ae be 07 83 87 be 8b b0 bc be 6c bc bd bd
       -0.34142324 -0.26467153 -0.36853442 -0.09264454
000190 b8 04 94 be 8a 8d 15 be ae b2 ef bd f5 c3 28 3e
       -0.2890985 -0.14604774 -0.11704002 0.16481002
0001a0 bd c5 2a 3e 84 68 a5 3d da ff 3b 3d b2 5c e2 3c
       0.16676994 0.080765754 0.045898296 0.027632091
0001b0 81 ac b3 be 9f a4 31 bd be df 36 3d 3b e6 27 be
       -0.35092548 -0.043369886 0.04464697 -0.1639642
0001c0 79 38 b9 3d 8e 80 78 be 22 9b 88 be 83 e1 a2 be
       0.090439744 -0.2426779 -0.26680857 -0.31812677
0001d0 55 c3 2f 3d 41 17 c0 3d c0 79 96 be c0 ac 60 bd
       0.042910893 0.09379435 -0.29389763 -0.054852247
0001e0 90 e5 48 3e 6e 52 67 bd 61 48 61 be 6f 11 8b be
       0.19618821 -0.056475095 -0.22000267 -0.27161738
0001f0 1b 99 9d be d4 8e 25 3d 76 e0 43 bd 30 2d ae 3d
       -0.30780873 0.040419415 -0.047821485 0.085047126
000200 28 9f ca bd 8b 9f b8 be 85 b5 b4 be 75 ad e3 3d
       -0.09893638 -0.36059222 -0.35294738 0.11117069
000210 89 cf 6d be 22 93 8a 3c 48 bd c0 be d6 6c 53 3d
       -0.232237 0.016915862 -0.3764441 0.051617466
000220 45 3e 9a be fe ee 30 3e 3d b8 80 be f6 07 46 3e
       -0.30125633 0.17278668 -0.25140563 0.19338974
000230 7a 2c d8 3d 9f 3b a2 be c8 f8 b8 be 89 40 9e be
       0.10555358 -0.31686112 -0.36127305 -0.3090861
000240 b1 d8 f7 bd e0 62 41 3d 01 e9 90 3e c6 b1 dd bd
       -0.121018775 0.047213435 0.28302768 -0.10824923
000250 66 ff 42 bd 02 cc c7 3d af e0 00 be da dd af be
       -0.04760685 0.09755708 -0.1258571 -0.34348947
000260 d6 63 35 3e e3 17 8c 3d f1 95 4d 3d c9 80 9f bd
       0.17713866 0.068404935 0.050191823 -0.07788236
000270 3c 3c ba 3c c7 e5 1e 3e 55 2f 1f 3e 73 b2 ae 3e
       0.0227338 0.1551734 0.155454 0.3412052
000280 ae 03 a3 be 2f b2 68 3e da 52 4d 3e 65 17 91 3d
       -0.31838745 0.22724222 0.20051137 0.0708454
000290 f0 f3 af be 59 19 b5 be a5 ab fa bb 7c 11 ad 3d
       -0.34365797 -0.353709 -0.007649856 0.084506005
0002a0 f3 79 26 3e 3c 80 18 3e 5f 02 97 be fb 92 0e be
       0.16257457 0.14892668 -0.29493997 -0.13923256
0002b0 1f 01 db bd 4b 69 34 bd 72 6b 87 3d c9 00 c1 be
       -0.10693573 -0.044045728 0.066122904 -0.37695912
0002c0 65 69 b0 ba f9 3f 99 be d6 4f 21 3e bf d2 89 be
       -0.0013459144 -0.2993162 0.15753111 -0.269186
0002d0 01 d7 52 be f6 e6 1e be e0 8e e5 bc cb e2 0f be
       -0.2058983 -0.15517792 -0.02802223 -0.14051358
0002e0 f5 22 3d 3e 3c 26 75 be e1 bc ea bc 8c 37 cf bc
       0.18470366 -0.23940367 -0.028654518 -0.025295042
0002f0 a1 ca 88 be de 21 17 3d bb e5 04 3e 00 00 8c be
       -0.26717094 0.036897533 0.1297826 -0.2734375
000300 9e b7 c1 be 0a 59 9d bd d8 fd 9b be 19 78 c4 bd
       -0.378354 -0.076829985 -0.30467105 -0.09593219
000310 b7 3c 9f bd 9d bd a8 be cc 4b eb bd 34 c0 89 be
       -0.07775252 -0.32957163 -0.114890665 -0.26904452
000320 5e ea 99 be b7 33 1b bd c0 b8 57 be fb 8b 45 3e
       -0.3006162 -0.037891116 -0.2106657 0.1929168
000330 32 0f 21 bd 9c 8b 46 3e 21 88 0e be 69 83 33 be
       -0.039321132 0.19389194 -0.13919117 -0.17530598
000340 23 45 a0 be 98 c9 84 be 5f cf 79 be 58 8f 84 be
       -0.31302747 -0.25935054 -0.24395512 -0.25890613
000350 0e 9d 14 3e 0f 73 52 be 95 f5 ba be ee 3e f5 bd
       0.14513037 -0.20551704 -0.3651549 -0.119748935
000360 ba 75 a5 be c2 0f 29 be 8a 6f a5 3c 79 79 a5 be
       -0.3231638 -0.16509917 0.020194788 -0.3231924
000370 0e 25 85 3d ed c8 ee bd d2 f0 bf be e4 56 24 be
       0.06501208 -0.11659417 -0.3748842 -0.16048771
000380 fc a4 d6 bd cf 39 de 3d 6f 73 3c be d7 22 a2 be
       -0.10480687 0.1085087 -0.1840341 -0.31667206
000390 eb c6 9b be 17 8b 9a bd 55 e7 7e be de e9 7a 3e
       -0.304252 -0.075460605 -0.24892934 0.24503276
0003a0 db ba 38 be bd ef ab bd 42 f4 06 be b1 d5 40 3d
       -0.1804003 -0.08395336 -0.13179114 0.047078792
0003b0 8b cf 01 be 2e 17 a6 bd 83 a9 f8 3d 30 74 7f be
       -0.12676828 -0.0810989 0.12141707 -0.24946666
0003c0 02 5e 65 be 18 3d 10 3e bf fd 57 be 04 af 0c 3e
       -0.22399142 0.14085805 -0.2109289 0.13738638
0003d0 9e 2b 86 be 23 8b 4b 3d 1e e1 79 be 15 b6 48 be
       -0.26205152 0.049693238 -0.24402282 -0.19600709
0003e0 94 21 9f bd 93 2a 04 3c ca c9 e7 3c 15 71 d4 3b
       -0.077700764 0.008066791 0.028294463 0.006483207
0003f0 a8 df 62 be 0c 49 82 3e 38 c9 d7 3c 99 03 d6 bd
       -0.2215563 0.25446355 0.026341066 -0.10449905

network_body._body_endoder.seq_layers.0.bias f4 [256]
000000 05 c0 42 bd 58 1c 58 bd d8 92 f5 bc 17 30 1d 3c
       -0.047546405 -0.052761406 -0.029977247 0.009593985
000010 c2 d8 5b bd e2 ef 3b bd b1 72 c6 bb ce 14 f4 3c
       -0.053673513 -0.045883067 -0.0060561527 0.029795077
000020 fb fc 05 3e 48 7f 51 3d 61 b4 91 3c 0e da 1f be
       0.13084786 0.051146775 0.017786207 -0.15610525
000030 1e 30 ae 3b b8 4b 74 bd 50 95 44 3c 1f cc a5 bc
       0.0053157946 -0.059642524 0.0119984895 -0.020238934
000040 02 0d 33 be d4 76 c7 3c ee de 9e 3d 17 be 44 3c
       -0.17485431 0.024348654 0.07757364 0.012008212
000050 34 9f d7 3d 45 db 46 3d a8 73 22 bd 8f 27 cb bd
       0.105284125 0.048548955 -0.03966108 -0.099196546
000060 57 73 89 3d 8b 86 f0 3c 25 89 77 3d 90 c5 09 3e
       0.067114525 0.02936103 0.060433526 0.1345427
000070 ff 85 c7 3d 96 02 36 bd 40 ff 0e be 7c 0b a2 3d
       0.097423546 -0.04443606 -0.13964558 0.07912347
000080 9a c4 9f bd e6 83 35 3d 49 6a 96 3d c4 10 7f 3b
       -0.07801171 0.04431524 0.07344491 0.0038919905
000090 ef d4 a7 bd 86 95 3f bd 85 c6 9b 3b f4 df 09 3e
       -0.08194911 -0.046773456 0.00475389 0.13464338
0000a0 70 de d4 3d 62 bf 74 bb 59 7b d7 3c 70 ba 4f 3d
       0.10393989 -0.0037345518 0.026303934 0.05071491
0000b0 aa 20 dd 3d 8a c6 e7 3d 1a 68 4c 3d 66 b9 12 be
       0.10797246 0.11317165 0.049903966 -0.14328536
0000c0 1e a7 9a 3c df ab a9 3c c6 34 d1 bd 2e 33 81 bb
       0.018878516 0.020711837 -0.10215144 -0.0039428687
0000d0 7a 08 a6 bd bd 2d d4 3d 06 46 22 3d c6 5e 47 3d
       -0.081070855 0.103602864 0.03961756 0.048674367
0000e0 88 a1 03 3d ca 58 25 be 4a 61 a5 ba c3 6d 17 3d
       0.03213647 -0.16147152 -0.0012617495 0.03696991
0000f0 6a cb 8b bd 57 26 f8 3d 81 7f 61 3c ab f5 36 bd
       -0.068259075 0.12116688 0.013763309 -0.04466788
000100 f6 d7 00 be e7 63 dc 3d c3 c7 06 3d 86 02 92 3d
       -0.12582383 0.10761242 0.03290535 0.071293876
000110 2f c8 d9 3a 91 fe 19 bd 93 74 8b bd 57 1a a4 bd
       0.0016615445 -0.03759629 -0.06809344 -0.080128364
000120 9d 9b 6d 3b 1c 74 d4 b9 9a be dc 3c 76 ad 80 bb
       0.0036256083 -0.000405223 0.026946355 -0.003926928
000130 72 23 98 bd 0c 34 87 3c 24 b2 bb bd 12 43 7f bc
       -0.07428636 0.01650431 -0.09164837 -0.015579956
000140 ab 68 03 3d fb c8 65 3d 80 03 11 3d b6 08 80 3b
       0.03208224 0.056099873 0.03540373 0.0039072884
000150 e8 ce bf ba 99 37 04 bd 81 1a 8c 3d 5a 47 92 bd
       -0.0014633806 -0.032279585 0.06840993 -0.071425155
000160 b3 87 06 3e 2a 64 94 3d 52 2f 3d 3c f2 c3 f1 3d
       0.13137703 0.07245667 0.011546927 0.11804952
000170 61 64 00 be 57 a4 0a 3e 80 90 cf 3d f6 23 be 3c
       -0.12538292 0.13539253 0.10134983 0.023210507
000180 56 93 f7 bb e5 91 ac bd ee 9f d0 bd 78 d3 cb 3c
       -0.0075554056 -0.08426265 -0.10186754 0.02488111
000190 1d d5 e7 3d 1d 51 78 bd 05 5c 97 3d 79 50 6a bc
       0.11319945 -0.06062423 0.07390598 -0.014301413
0001a0 2c db e4 3c 99 a9 b5 bd 2f b6 e1 bc 7b c9 13 3d
       0.02793654 -0.08870239 -0.027552692 0.03608082
0001b0 61 93 e7 3a 8a 61 15 3d a3 cd 0d 3d 4f 45 6d 3d
       0.0017667824 0.036469974 0.03461994 0.057927426
0001c0 23 13 dc bd a9 13 63 bc 23 33 d2 bd 62 96 73 3d
       -0.107458375 -0.013859668 -0.1026366 0.059469588
0001d0 5a ea b1 bc b3 dc 2f 3d 3c 3a 35 bc 12 4b 16 bd
       -0.021718193 0.042935085 -0.011061247 -0.036692686
0001e0 d2 05 ac 3b a4 c4 df bc a0 31 7d 3c a0 3e a8 bc
       0.0052497173 -0.027315445 0.015453726 -0.020537674
0001f0 6a 28 3f 3d 59 34 ec bd c0 05 bf bb da e7 a6 3d
       0.0466694 -0.11533422 -0.005829543 0.08149691
000200 7d ba d4 bd 1b e0 c8 bc 44 29 fd bc ec 4b 34 3d
       -0.10387132 -0.024520924 -0.030903466 0.044017717
000210 fc 44 59 bc d5 34 2f 3d d5 88 7f bd 86 92 02 bd
       -0.013261076 0.042774994 -0.062386353 -0.031878017
000220 7e dc 42 bd 38 b2 af bc ae 22 6b bd e6 49 31 3d
       -0.04757356 -0.021447286 -0.05740612 0.043283366
000230 c8 d0 a0 bd ea cc 07 3d 64 98 33 3d a1 91 86 bd
       -0.07852322 0.033154406 0.043846503 -0.06570745
000240 f9 f1 01 3d a4 16 67 3d 5a 66 bb 3c 73 c0 d6 3d
       0.031724904 0.056418076 0.022875953 0.104859255
000250 fe ba cf bd 42 64 85 bd 16 85 2f bd d2 e2 3b 3d
       -0.10143088 -0.06513263 -0.04285153 0.04587061
000260 c0 2e 7e bc 88 b5 f4 bc 66 30 c2 bd 6e 98 4b bd
       -0.015514076 -0.029871717 -0.094818875 -0.049705915
000270 b1 d9 14 bc 03 a8 a5 3d b0 19 a8 bd d3 ff 65 3d
       -0.009085105 0.08088686 -0.082080245 0.056152176
000280 11 35 07 3e 64 57 81 bd 3c ef 31 3e 5a ae f2 bc
       0.13203837 -0.063154966 0.17376417 -0.029624153
000290 ad 7e 28 3d 94 5f 33 bc 98 e3 56 3a 94 42 bd ba
       0.041136432 -0.010948081 0.0008197366 -0.0014439397
0002a0 aa 89 47 3d 28 1c 25 bd 93 81 86 3d bb 98 45 bd
       0.04871527 -0.040310055 0.06567683 -0.04824136
0002b0 c6 a9 e9 38 60 14 a1 bc 44 8e 61 bc 95 fd b8 3b
       0.000111419286 -0.019663036 -0.013766829 0.0056454637
0002c0 63 88 b8 bd 6a 99 b1 3d 45 7e 89 bc ce 3f d5 bd
       -0.09010389 0.086718395 -0.016783843 -0.104125604
0002d0 d0 1d fd 3d a4 ec e3 bd bf 93 a5 bd b6 9c f5 bc
       0.12359202 -0.1112912 -0.08084821 -0.029981952
0002e0 ab fc 85 bd 22 a1 80 bd a4 17 9b 3d 4a 8e a2 bd
       -0.06542333 -0.06280734 0.075728685 -0.07937296
0002f0 19 82 9e bc 90 6f 3f 3c 9b 79 d9 3d 39 71 f2 bd
       -0.019349145 0.011684313 0.106188975 -0.11838002
000300 37 57 d8 3c f2 56 88 3d 6f 3f 78 bd ed 93 af bd
       0.026408775 0.066572085 -0.06060737 -0.085731365
000310 d3 1e 88 3d 22 35 a7 bd a1 84 14 3a db 9a 88 bd
       0.06646504 -0.08164431 0.0005665515 -0.06670161
000320 b0 2d 02 bd 9f 47 5a bd 29 35 b5 3b 4a 2f 83 bb
       -0.031781852 -0.05329096 0.005530019 -0.00400344
000330 d9 e4 b0 bd fa 7c fb 3b 81 3e c9 bc a9 b4 fc 3b
       -0.08637399 0.0076748105 -0.024565937 0.007711966
000340 60 45 f7 bd 28 fa 50 bd cb b5 99 3d 7f af 5b 3d
       -0.12073779 -0.051019818 0.075053774 0.053634163
000350 52 de 75 bd e7 63 2f bc d4 61 03 3e 84 8a cb bd
       -0.060026474 -0.010704971 0.12830287 -0.09938529
000360 d2 4a 3c bd e2 2a 32 3d dd f3 81 3c ce a3 85 3d
       -0.04596979 0.043497927 0.015863353 0.06525384
000370 22 78 ea 3d 09 b2 df 3a 3d 6d 9d 3c 8c 81 be 3b
       0.11448695 0.0017066608 0.019217128 0.005813783
000380 38 85 0c 3c 7c e5 f4 bc ce 9a ea 3d 4b 0b 2a 3d
       0.008576684 -0.029894583 0.11455308 0.041514676
000390 81 1e 99 bd 1b ea d5 bd 18 79 7b 3c 2c db e0 bb
       -0.07476521 -0.10445043 0.015348695 -0.006862065
0003a0 b7 bf 81 3c d7 f0 4f 3d 5e 49 24 3e 5a 3a fc 3d
       0.015838487 0.050766792 0.16043612 0.12315817
0003b0 f3 96 77 3d 29 07 ef 3d b0 c6 2f bc 5d 26 af 3c
       0.06044669 0.116712876 -0.010728523 0.021380598
0003c0 ab 11 d9 3d bf e4 5c bd aa d1 c7 3d 66 9f b3 3d
       0.10599073 -0.053929087 0.09756787 0.08770637
0003d0 1b 32 61 3d 2c 8c 13 3d ba 08 00 39 ac 4a b8 bc
       0.054979425 0.03602235 0.00012210282 -0.022496544
0003e0 3a cd 8d bd 59 33 03 3d 8e 2f 66 bd 95 ae 16 3c
       -0.069239095 0.03203139 -0.056197695 0.009196897
0003f0 df cf 4a 3c b3 16 5b bd 84 ec 37 bd 4a 59 24 3e
       0.012378662 -0.053488445 -0.044903293 0.16049686

network_body._body_endoder.seq_layers.0.weight f4 [256, 61]
000000 a5 d7 dd bd 56 83 2e 3e c7 ca 4d bd 45 b1 09 be
       -0.108321466 0.17042288 -0.05024221 -0.13446529
000010 f9 39 6b 3e a3 fa e9 3d fa ac ec 39 48 b3 89 be
       0.22971334 0.11424758 0.00045142305 -0.26894593
000020 4b 05 89 be 0d 65 ae bd 08 6d 13 3d be 19 4c be
       -0.2676185 -0.08515368 0.035992652 -0.19931695
000030 2f e1 b5 3b f8 74 d3 3d 01 02 91 bb e0 32 db bd
       0.0055505256 0.103250444 -0.0044252877 -0.10703063
000040 45 0c d8 bd 14 20 0a be 32 71 d7 3d e7 73 37 3d
       -0.10549215 -0.134888 0.10519637 0.044788267
000050 97 ee 6c 3b 71 46 3b 3e c5 6d d9 bd 2c 75 95 bd
       0.0036152953 0.1828859 -0.1061664 -0.072977394
000060 af df 95 be e4 7f 3b bd 91 45 10 3e c9 30 10 3e
       -0.2927222 -0.045776263 0.14089037 0.1408111
000070 b2 2b 9a bc e2 2c 98 bd c6 3a 65 be d7 25 cc 3d
       -0.018819664 -0.07430436 -0.22385702 0.09968155
000080 1b 1b 87 3e bb af c5 3c 9a 4b 6a 3e 56 b7 b0 3d
       0.26387867 0.024131646 0.22880402 0.086287186
000090 cc 3f 95 bd 1c 3c d6 3c ac b1 25 3e 1a 70 05 3e
       -0.07287559 0.02615171 0.16181058 0.13031045
0000a0 80 ce 5f 3e b7 a1 26 bd 74 d8 78 3e 3c c7 ac bd
       0.21856117 -0.040681567 0.2430132 -0.084364384
0000b0 8f d9 5e be af 54 e9 3d 14 57 9e 3e d2 05 cb 3d
       -0.2176268 0.11393105 0.3092581 0.099132195
0000c0 f6 46 c9 bd 5e ff 99 bc 03 b0 8c bd d5 8f e9 bc
       -0.09827988 -0.018798526 -0.06869509 -0.028510967
0000d0 4c 17 1f 3e a9 8e 9e be ff 40 f8 3d 16 ff 91 3d
       0.15536231 -0.30968216 0.12121772 0.07128732
0000e0 4a 05 03 3e 0e e2 03 be f7 68 b4 3d 7e 73 18 be
       0.12794986 -0.12879202 0.08809083 -0.14887807
0000f0 1e 9e a3 3d 1f e1 b0 3d 32 b1 1e 3d 88 0d 74 3d
       0.07989143 0.086366884 0.038743205 0.059583217
000100 a2 a2 a5 3d 2c fa 09 3d 62 5e ba 3d 04 35 1e be
       0.0808766 0.033685848 0.09100033 -0.15449911
000110 dc c7 2e be 19 03 33 bd 74 3d 88 3e 93 8d 8c bd
       -0.17068428 -0.043704126 0.26609385 -0.06862941
000120 f6 68 29 3e de 3c ca bd 29 07 f5 bd f8 de 35 3e
       0.16543946 -0.09874891 -0.11964256 0.17760837
000130 f2 b6 65 bd 55 8f 55 3e 4c d4 6b be f7 7b f7 bd
       -0.056082673 0.20855458 -0.23030204 -0.12084191
000140 e9 5c 29 3d 22 6a 3f be c8 16 7a 3e 3d d9 1e 3d
       0.04134837 -0.1869283 0.24422753 0.038781393
000150 df b6 c0 3d ba a3 43 be f8 96 a3 bc 9c 28 5e be
       0.0940988 -0.19105425 -0.019969448 -0.21695179
000160 b9 9a 20 be c0 0f df bd f9 08 52 3e 4a dc 79 bd
       -0.15684022 -0.10891676 0.20511235 -0.0610011
000170 c2 f3 a7 3d 7c d5 18 3d 92 2c 66 bd 63 45 5d bc
       0.0820079 0.03731297 -0.05619485 -0.013505313
000180 26 1d 73 3e be 56 96 bd 01 3f 39 3e b9 05 7b bd
       0.23741588 -0.073407635 0.1809044 -0.061284754
000190 bf 6f b5 bd 3c 59 24 3e 25 46 8a 3e a8 51 96 3c
       -0.088592045 0.16049665 0.2700664 0.018349484
0001a0 75 21 f9 3d 53 21 2c be 1e 93 43 3e 6d 85 bc be
       0.121645845 -0.16809587 0.1909909 -0.36820546
0001b0 69 4b 82 3d 50 05 08 3d c0 a8 ff bc 9e c0 80 3e
       0.063620396 0.03320819 -0.031208396 0.25146955
0001c0 8b 33 12 3e 50 9d 58 3e af 00 74 3e cf d7 19 be
       0.14277475 0.2115376 0.23828386 -0.1502373
0001d0 38 7a 30 3d 4b eb 3f be a2 71 8e 3e da ca 3c be
       0.043085307 -0.18742101 0.2782107 -0.18436757
0001e0 be 1f 21 3e bc 74 72 bd 80 0a de bd b4 13 cb bd
       0.15734765 -0.059193358 -0.108418465 -0.099158674
0001f0 f7 4a 3b be 65 62 53 3e b0 64 b5 3c 89 0a 91 3b
       -0.18290316 0.20643003 0.022142738 0.0044263047
000200 68 61 d4 3d 91 54 48 3d 8d ac 27 be fe 33 85 bd
       0.10370141 0.048908774 -0.16374417 -0.06504057
000210 9f e7 35 3d b2 06 24 3e 46 55 f9 bc a9 96 67 3e
       0.044410344 0.16018179 -0.03043617 0.22616066
000220 d2 37 cc 3c 0c d3 21 3d b9 fd 16 3d ea b1 07 3e
       0.024928961 0.03950791 0.036863063 0.13251463
000230 df e8 03 3e 70 c5 79 be c3 73 cf bc 96 be b7 3d
       0.12881802 -0.24391723 -0.025323754 0.08971898
000240 b8 63 33 be 74 88 53 bd 6f b4 4e 3d 45 5e 8c 3c
       -0.17518508 -0.051643804 0.050465044 0.017134795
000250 fb 26 71 3e 03 20 cc 3e 2c 2a 8b be 2c 2d 89 3e
       0.23550026 0.39868173 -0.27180612 0.26792276
000260 66 5f 1d bb 2c 96 27 be a2 59 89 be 1a 3e cf bd
       -0.002401316 -0.1636588 -0.26826197 -0.10119267
000270 84 12 49 be 61 8b 82 3d 94 a2 26 3e d0 ea 32 bd
       -0.1963597 0.06374241 0.16272956 -0.043680966
000280 32 e6 5a be 5b 69 57 3d 8f bd 13 3d 52 c4 0a 3e
       -0.21376875 0.05259071 0.03606945 0.13551453
000290 b5 63 3e bd 79 d8 36 3e 3c 37 03 be b9 86 41 3c
       -0.046481807 0.17856015 -0.12814039 0.011811906
0002a0 aa 44 ce 3d 2d 3c d6 bc 61 48 1b bd 9d ab d9 3d
       0.100716904 -0.02615174 -0.037910823 0.10628436
0002b0 a8 e9 ac be e1 96 03 3e c6 f3 00 3e e9 32 d7 bd
       -0.33772016 0.12850524 0.12592992 -0.10507757
0002c0 74 6c a4 be 79 a5 6f 3e fe 3e de bd 0b 2f 4a bd
       -0.32113993 0.23402967 -0.108518586 -0.04936127
0002d0 d6 7e 94 3d 1b 57 bf bd 30 d5 22 3d bd 91 6e 3d
       0.072507545 -0.09342786 0.039754093 0.058244456
0002e0 4b ff 1b 3d 3c 8e 21 be 34 ac 46 bc 43 0f 9f 3d
       0.038085263 -0.15776914 -0.012126017 0.07766583
0002f0 b5 57 a4 bd d2 2c c7 3b ea 7d f9 3d 89 da fd bc
       -0.08024541 0.006078341 0.12182219 -0.030987995
000300 2f 6d cb bd 36 62 6c 3c a5 4d 40 bd 96 0d b7 3b
       -0.099329345 0.014427712 -0.046949048 0.0055863364
000310 47 2a 14 be 0e 1a ef bc f6 ca 16 be 72 da b4 bd
       -0.14469253 -0.029187229 -0.14725861 -0.08830728
000320 ef 51 45 3e 28 b8 d9 bd d3 03 11 be 8a e5 07 3e
       0.19269536 -0.10630828 -0.14161615 0.13271156
000330 45 9b 5d be 49 fb 44 3d 08 c4 34 bd 86 09 86 3d
       -0.21641262 0.048091207 -0.044132262 0.06544785
000340 3f 17 69 3d 18 86 3a 3d db b0 93 be 3a 56 ee 3c
       0.056906935 0.045538038 -0.28845868 0.02909385
000350 f2 34 8d bd 0c 54 c9 bb 55 54 65 be 34 c2 6b be
       -0.06894864 -0.0061440524 -0.22395451 -0.23023301
000360 7d 6d 5d bd 04 23 c6 bd ff 44 90 be 97 5b 57 3e
       -0.054059494 -0.096746475 -0.2817764 0.21031033
000370 9b a1 8a 3e e4 58 97 be c1 d3 ab 3d 0e 00 19 3c
       0.2707642 -0.29560006 0.08389998 0.009338392
000380 2b f9 fd bd 90 d1 63 3d 21 88 3f be 65 0f 88 bd
       -0.12401041 0.055619776 -0.18704273 -0.06643561
000390 b9 ff 02 be db 18 3e bd 47 62 af 3d f3 10 27 bb
       -0.12792863 -0.046410423 0.08563667 -0.002549228
0003a0 c0 ca 89 3e 6d fb 22 3d fc db 25 bd bc b3 6e 3d
       0.26912498 0.03979056 -0.040492997 0.058276877
0003b0 54 2d ec 3c 72 3e 58 3e 42 cb 2f be f2 75 42 3e
       0.028830208 0.21117571 -0.1716738 0.18990305
0003c0 fb 45 35 3e 98 ea a4 3b 8e 80 bb 3c 73 bd 86 3e
       0.17702477 0.0050328486 0.022888448 0.26316413
0003d0 ad 71 41 3d c9 81 0b 3e 76 bb 6f 3d 3d ec de bd
       0.04722755 0.13623728 0.058528386 -0.108849026
0003e0 5c 57 13 3e 9c dd 82 be 16 14 10 3e 92 29 95 bd
       0.14388794 -0.255597 0.14070162 -0.072833195
0003f0 23 ec 97 3d 24 12 0a be f9 c2 7c 3c 03 e1 92 bd
       0.074180864 -0.13483483 0.0154273445 -0.07171824

network_body._body_endoder.seq_layers.2.bias f4 [256]
000000 d2 e5 bb bd 81 b8 ec bd 8c 54 f9 bd 18 80 34 3c
       -0.09174694 -0.11558629 -0.12174329 0.011016868
000010 ef 38 39 be f4 13 ed bb 99 73 bc 3c 6d 14 b5 bb
       -0.18088125 -0.0072350446 0.02300434 -0.0055261166
000020 42 48 56 bc a4 d9 ed 3c b3 48 08 3c 16 20 00 be
       -0.013078751 0.029034443 0.008318114 -0.1251224
000030 66 17 11 be fd 03 12 be 04 b0 20 3b 2d aa c6 bc
       -0.14169082 -0.14259334 0.0024518976 -0.024251068
000040 d2 b5 fa bb 56 16 fd bc 02 15 9f 3b 4c 96 9c 3b
       -0.007651069 -0.03089444 0.0048547992 0.004778659
000050 2e 9a cc bd f2 3a 95 3b 10 ee b3 bc 2a d2 16 3c
       -0.09990345 0.004554146 -0.021964103 0.00920538
000060 63 d9 9e 3c a6 be be bd 64 51 b6 bd b1 58 e6 bc
       0.019390767 -0.09313707 -0.08902243 -0.028118463
000070 73 bc a1 bc fe af 07 be 77 e2 ce bd 0b 35 09 bd
       -0.01974318 -0.1325073 -0.101017885 -0.03349785
000080 4d 22 02 bc 21 06 10 3b 05 13 7c bb 0e d2 09 be
       -0.007942748 0.002197631 -0.0038463485 -0.13459036
000090 6a c0 92 3b 6a 81 92 bc a7 3b 56 3b 7d ab 35 bd
       0.004478504 -0.017883975 0.0032689364 -0.044352997
0000a0 ad 9e 10 be 41 86 0d 3d b5 61 85 bc 43 0b 0d be
       -0.1412303 0.034551863 -0.016281942 -0.13773827
0000b0 e6 89 85 bd e1 34 0b be ca 27 31 bd 01 05 e1 3c
       -0.06520443 -0.1359439 -0.043250836 0.027468206
0000c0 61 46 7f bc 62 e2 ea 3c fe 2b 18 be 5c db 53 3c
       -0.0155807445 0.0286724 -0.14860532 0.012930717
0000d0 d1 72 9c bd 65 f2 c9 3b 00 49 41 3b 62 89 03 3d
       -0.07639087 0.006162929 0.0029492974 0.03211344
0000e0 e1 b9 b3 3c b7 e5 76 bd ed a7 35 bd 6e 00 dd bc
       0.02193922 -0.060277667 -0.0443496 -0.026977744
0000f0 29 a8 24 bd a6 5d dd bc 05 51 0e be 39 8e 1f bd
       -0.040199433 -0.027022194 -0.13898094 -0.038953993
000100 d1 98 13 bd 40 33 cd 3b 10 01 65 bc 22 0b 69 bd
       -0.03603441 0.006262213 -0.013977304 -0.056895383
000110 ed 31 17 3b 9a 0b 76 bc 11 3f 7e b8 6c c0 c4 bb
       0.002307053 -0.015017414 -6.0617054e-05 -0.006004384
000120 56 d3 a5 3b d5 82 de bd cc 6c a7 3c 22 18 0b be
       0.0050605936 -0.10864798 0.02043762 -0.13583425
000130 81 08 c0 bb 89 21 49 bd c3 33 78 3b f3 4a 0c be
       -0.0058603887 -0.049104247 0.003787265 -0.13700466
000140 62 2f 89 3b f2 8d 01 3c 32 bf 77 3d ee 81 d4 bc
       0.0041865567 0.007907378 0.060485072 -0.025940862
000150 cf a2 22 3c 0c 23 33 bc a9 f0 d5 bd 20 bd 00 be
       0.009926512 -0.010933649 -0.10446293 -0.12572145
000160 68 8b 11 3d e4 15 fc bc a5 9c 93 bc 47 08 c2 3c
       0.03553334 -0.030772157 -0.01801903 0.023685588
000170 3f 31 67 3c a2 65 db bd 81 cb 4e 3b 28 e9 12 be
       0.014110862 -0.10712744 0.0031554403 -0.14346755
000180 6a 48 e3 bd cd 5f 46 be 30 df de bd c8 33 b0 bc
       -0.11097796 -0.19372483 -0.108824134 -0.021509066
000190 93 ab 16 bd c0 67 d3 3c d8 34 08 ba 3b 8a ac 3c
       -0.03678472 0.025806308 -0.00051958626 0.021062007
0001a0 01 b0 82 3d 08 5a e2 3c 70 b1 19 3d c2 ae 3f 3a
       0.06381226 0.02763082 0.037522733 0.0007312113
0001b0 50 4c 00 be 2c 35 00 bc fd 7b 41 3c 0e 4c 90 3c
       -0.12529111 -0.007825177 0.011809346 0.01761439
0001c0 7c e4 07 bc 8b 1d 9e bd 2d 84 ae bd ab 81 06 be
       -0.008294221 -0.077204786 -0.08521304 -0.13135402
0001d0 6a d7 9e bc 1b e0 1d 3c a3 a2 62 3c 65 b9 c0 3a
       -0.019389827 0.00963595 0.013832721 0.0014703689
0001e0 a1 c7 cd 3c fb 12 b7 3b 7d a2 13 3c 3b 5c ee bd
       0.025119605 0.0055869794 0.009010908 -0.11638685
0001f0 13 23 c1 bd e4 f8 e5 bb 9e 92 84 bc 7f 58 5e 3d
       -0.09430518 -0.0070181955 -0.016183194 0.054283615
000200 27 5c 57 bc e2 bc 28 be 96 fa 0f be 43 d4 65 3c
       -0.013144529 -0.16478303 -0.14060435 0.014027658
000210 a5 27 72 bd 19 48 a4 3b cf 4f f4 bd ae ff 4a bb
       -0.05911984 0.0050134775 -0.11929285 -0.003097515
000220 6e 02 ff bd 88 3f cc 3b 4b 4d 16 be 80 39 dc 3c
       -0.12451635 0.0062331595 -0.14677922 0.026882887
000230 53 bb 1c 3d 6b 3f c1 bd 6c 82 16 be 23 c4 ee bd
       0.038264584 -0.09435924 -0.1469819 -0.11658504
000240 31 b9 6c 3c ea e2 64 3c b0 79 ba 3c f1 36 43 bd
       0.01444845 0.013970116 0.022763103 -0.047659818
000250 44 c9 dd 3a 59 5f 91 bc 04 90 9b 3b 63 66 da bd
       0.0016920944 -0.01774566 0.0047473926 -0.1066406
000260 25 45 c9 3b 36 94 2b 3b 67 f3 1b bb 4c 3b f5 ba
       0.006142276 0.002618087 -0.0023796202 -0.0018709688
000270 35 2d 9b bb bf 83 7c 3d a7 16 6e 3d ea 34 30 3e
       -0.0047356137 0.06164908 0.05812707 0.17207685
000280 97 0f f3 bd ea e0 46 3d 36 e0 da 3c 89 c2 97 3c
       -0.11868208 0.04855434 0.02671824 0.018525379
000290 8b d8 b3 bd c7 52 30 be 00 91 ea bc c4 14 0b 3d
       -0.08781537 -0.17219077 -0.028633595 0.03395535
0002a0 b2 2f 34 bd e1 7c 8d 3b a9 99 f7 bd e5 b7 a8 bc
       -0.0439908 0.0043178652 -0.12089855 -0.0205955
0002b0 c5 8e 00 3d 9d 5f 50 3c 83 0b 08 bd bb 40 81 bd
       0.031386156 0.0127181085 -0.033214103 -0.063111745
0002c0 a4 46 d4 3b de 34 0c be ce 36 f1 3c f5 25 ad bd
       0.0064781476 -0.13692042 0.029445078 -0.08454505
0002d0 57 39 89 bc 12 cc 2a bb 26 81 e1 3b 78 eb 19 3c
       -0.016750975 -0.0026061577 0.006881851 0.009394519
0002e0 90 d1 88 3d 26 58 bc bc 74 d1 6e 3b 4d 41 17 bc
       0.06680596 -0.022991251 0.0036440762 -0.0092318775
0002f0 fe 2a 2a be d5 9b 24 bd 32 be 37 bd 63 4b ce bd
       -0.16617963 -0.040187676 -0.04485912 -0.100729726
000300 71 7d 04 be fa bb c4 3c 0c b1 17 be fc 6b e3 bc
       -0.12938477 0.024015415 -0.14813632 -0.027761452
000310 58 35 39 3b c8 a2 10 be a6 f0 81 3c b4 65 04 be
       0.0028260555 -0.14124596 0.01586182 -0.12929422
000320 3d 64 29 3c 9f c0 20 3b ff 3c 59 bd bf 28 6b bc
       0.01033884 0.0024528874 -0.053036686 -0.014352976
000330 ec c4 4f bc 6e 24 9c 3c 2f de 01 3b 76 94 07 bd
       -0.012681227 0.01906034 0.001981627 -0.033100568
000340 a4 85 f4 bc 80 a5 b0 bd 7c 69 cf bd 6c 8d ed bc
       -0.029848881 -0.086253166 -0.101275414 -0.0289981
000350 1b 3b e0 3c ae 76 44 3c ff 93 16 be c0 bd 26 bc
       0.027371934 0.011991186 -0.14704894 -0.010177076
000360 09 f8 1a be 8c 7c 2e 3d 86 71 36 3a de 0f 23 be
       -0.1513368 0.042599246 0.00069596653 -0.15924022
000370 26 a1 ca 3b 67 d3 ba bc ba 05 f2 bd 4e 2c bd 3b
       0.006183761 -0.022805883 -0.118174985 0.005773104
000380 a0 c3 de 3c 91 ce 59 3b bd 47 84 bd 4f 54 0d be
       0.02719289 0.0033234695 -0.064589955 -0.13801692
000390 18 2e 18 bd 0d 94 0d 3d 1c b4 d7 bd f7 af 91 3c
       -0.037153333 0.03456502 -0.105324 0.017784102
0003a0 c8 78 06 3a d7 c1 7d bb 1e e1 b0 bc 96 82 d6 bc
       0.0005129692 -0.0038720274 -0.02159172 -0.026185315
0003b0 ee de e9 bc 82 95 06 bd 2f 1f 40 3c e8 77 f2 bd
       -0.028548684 -0.032857426 0.011726185 -0.118392766
0003c0 1a 40 72 3c ac 53 73 bc 5c c9 35 be 9a 1c 3a bc
       0.014785791 -0.014851492 -0.17752594 -0.011359358
0003d0 20 b4 17 be b0 a4 4a 3d f6 ed ab bd 9b 13 8c bc
       -0.14814806 0.049473464 -0.08394997 -0.017099192
0003e0 66 5b cf bc 87 3c 27 3c 85 f9 9f 3a bd 5c 56 bc
       -0.025312137 0.010207302 0.00122051 -0.013083634
0003f0 dc 28 16 bd 55 57 6d bc d3 55 de bc f8 db 24 3d
       -0.03666006 -0.014486154 -0.027140534 0.04024884

network_body._body_endoder.seq_layers.2.weight f4 [256, 256]
000000 5d 0a 56 bc 89 64 a5 3c 03 1d 73 3d 38 67 11 bd
       -0.013063994 0.02018954 0.05935384 -0.035498828
000010 ac e6 80 bd 46 38 09 3d 52 82 e4 bc aa 0c e1 bd
       -0.06293997 0.033500932 -0.027894173 -0.109887436
000020 31 02 12 be db 76 82 bd d2 dc 05 3d 1a 09 81 3d
       -0.14258648 -0.06370326 0.032681294 0.06300564
000030 38 67 54 bd 57 eb cf 3d 67 51 02 be be 5f 4d 3c
       -0.05185625 0.101523094 -0.12726365 0.012535034
000040 61 bd a1 3d 6e f5 8a bd 32 45 15 3e ba ec 35 3c
       0.07897449 -0.06785093 0.14577177 0.011103803
000050 bd 5e 9d 3c 4e e7 b3 3d 45 3a cb bd f2 0f 70 bd
       0.019210214 0.08784352 -0.099232234 -0.058608957
000060 bc f1 2b bc f6 80 11 bd 03 44 32 bd 1d b7 00 be
       -0.010494646 -0.035523377 -0.043521892 -0.12569852
000070 86 f4 ae bd 19 12 d0 3d 36 7f 72 3d 41 3b b8 be
       -0.08542733 0.10159702 0.05920335 -0.35982707
000080 66 34 32 3c 47 3a fd bb 10 50 1e be 40 29 bb bc
       0.010876751 -0.0077278945 -0.15460229 -0.022846818
000090 d8 c4 63 3d e2 8d 76 bd 2a d6 90 bd 7d b7 02 3e
       0.055607647 -0.060193904 -0.070720986 0.12765308
0000a0 7c b8 52 be e0 eb d4 bd 88 20 d2 bd 7c be 5b be
       -0.20578188 -0.10396552 -0.10260111 -0.21459383
0000b0 eb f5 a1 3c 74 36 1e 3b fd 09 68 bd 20 d2 3c 3d
       0.019770583 0.0024141343 -0.05665015 0.04609883
0000c0 72 76 1e be 81 9e 48 be 72 32 82 bd aa 65 4c bd
       -0.15474871 -0.19591714 -0.06357278 -0.049901642
0000d0 11 11 9f 3d fc e1 30 3d bc e4 f2 3d 1c 57 12 3b
       0.07766927 0.043184265 0.11860034 0.0022329753
0000e0 9d a6 72 3c 14 6d 33 3d 81 75 c4 bc bf f6 97 3c
       0.0148102315 0.043805197 -0.023981811 0.018550275
0000f0 da 62 dc bd be 0c 2e 3d b7 b2 21 be c7 00 0c 3d
       -0.10761042 0.04249262 -0.1579083 0.03418043
000100 0a ef 82 3d 90 96 b4 bd e3 49 0c bd 95 c5 a2 bd
       0.06393249 -0.0881778 -0.03425015 -0.07947842
000110 71 49 3c bd 90 8f 05 bd 3b 84 91 3e b7 34 d9 3c
       -0.045968477 -0.032607615 0.28421196 0.026514394
000120 cd 4c 22 bd 86 ab 11 3d 2c 9f 14 be a8 37 d2 3d
       -0.039624024 0.035563968 -0.14513844 0.10264522
000130 df 2b 50 bd da 02 1d bd d5 2b de bd 22 30 a7 3d
       -0.05082309 -0.038332798 -0.10848204 0.081634775
000140 f1 11 ab bc 96 30 8c 3c c0 5f 60 bc 54 1a 8f 3d
       -0.020882579 0.017113011 -0.013694704 0.069874436
000150 ec 28 a0 bd e0 fa 1e 3e 5a 67 3c be 53 81 9c bc
       -0.07820305 0.15525389 -0.183988 -0.019104635
000160 49 8f 43 be e4 b0 a2 bd 67 9d a8 bd f2 1e a7 be
       -0.19097628 -0.079438955 -0.08233147 -0.32640797
000170 ee f8 bb bc eb 3c 21 be 81 4e bb bd 92 20 19 3d
       -0.022945847 -0.15745895 -0.09145833 0.037384577
000180 c9 6f e4 bd ce f6 d3 3c 6b 90 82 bd 31 49 e0 bd
       -0.11154134 0.025874522 -0.06375202 -0.1095146
000190 de 69 a0 bd 1c 1a 4b 3b 29 7d cc bd a8 82 4c bb
       -0.078326926 0.0030990904 -0.0998481 -0.0031205807
0001a0 c3 cd d6 39 bc ee 38 3c 6e 2a 8a 3d 28 02 17 be
       0.00040970565 0.011287387 0.06746374 -0.14746916
0001b0 3d 6b 1e 3e 98 1d 72 bd e4 d4 a6 be 09 29 05 3e
       0.15470596 -0.059110254 -0.32584298 0.13003935
0001c0 b7 a2 9f bd 13 b6 f2 3d 7f d6 80 3c ad f8 9e bd
       -0.07794707 0.11851134 0.01572728 -0.07762275
0001d0 74 6b 9c 3d d5 4e c4 3c ae f8 30 3d 0b 80 e4 bd
       0.076376826 0.023963371 0.04320591 -0.11157235
0001e0 65 4c d4 bd a5 cb 7d be 43 d2 5d bd ff ea 69 3d
       -0.103661336 -0.24784715 -0.0541556 0.057108875
0001f0 c3 30 25 bd 88 83 f8 bd c0 37 c5 bc 29 8d cc bd
       -0.040329706 -0.121344626 -0.024074435 -0.09987862
000200 47 92 a8 3c a8 96 18 bc a7 9a ea bb 1b 65 fe 3b
       0.020577563 -0.009313263 -0.0071595493 0.0077635176
000210 d4 98 18 be 77 60 e2 3d 3f ee 31 39 bb e8 c5 bd
       -0.1490205 0.110535555 0.00016968789 -0.096635304
000220 0a 7c 3b 3d 6a 2a 26 3d de b3 38 3d 64 37 ae bd
       0.04577259 0.040567793 0.04509341 -0.08506659
000230 25 79 23 bd ca 32 09 be 7c fb 48 be b5 44 26 3d
       -0.039910454 -0.1339828 -0.19627184 0.040592868
000240 83 35 d1 bd b6 ff 0e bd 47 b4 28 3d 20 91 67 bd
       -0.10215285 -0.034911834 0.04118755 -0.056534886
000250 a2 b5 01 bd 2a 78 bc 3d 2a 66 00 bd 17 10 b9 3d
       -0.03166736 0.09202607 -0.03134743 0.09036272
000260 77 d7 d2 3d b3 b0 92 3d 62 6c 1f be 14 82 9b 3c
       0.10295003 0.07162609 -0.15568689 0.018982925
000270 c8 d4 52 bd 96 7b 12 3e 66 3d c0 bc 07 39 31 3d
       -0.051472455 0.14304957 -0.023466777 0.043267276
000280 8b 45 11 be 9a a2 d5 bd e1 5d e5 bd 37 af 06 bc
       -0.14186685 -0.104314044 -0.111995466 -0.008220485
000290 7b 33 16 be a9 5b a0 3d 84 91 28 be 6d ba 5b bd
       -0.14668076 0.07829983 -0.1646176 -0.053644586
0002a0 15 84 24 be 74 e5 27 bc 04 94 6c bd e1 15 c2 3c
       -0.1606601 -0.010247577 -0.057758346 0.023692073
0002b0 0b 18 5b 3d 9d f4 35 3d f4 59 23 3d 16 61 a2 bd
       0.053489726 0.044422735 0.039880708 -0.07928674
0002c0 dd 1b 91 bd 13 90 a9 bd 0f 4c a0 3d 9d b2 8e 3d
       -0.070853926 -0.08279433 0.07827007 0.069676615
0002d0 fe ae 70 3d 6d 09 1a bd ec 14 81 bd 4f 8a 10 bc
       0.058760636 -0.037606645 -0.06302819 -0.008822038
0002e0 e7 f6 72 3d 49 5d 9c 3d 7e 93 3a be 5d 1a 75 bc
       0.059317496 0.0763498 -0.18220326 -0.014959899
0002f0 84 7a 66 bd 7b c6 94 3c 53 8f 7f be 57 25 67 bc
       -0.056269184 0.01816105 -0.24957018 -0.014108024
000300 a1 c3 13 3e 8a 2d 96 bd d6 e0 93 bc 90 b1 d1 3c
       0.14430095 -0.07332905 -0.018051546 0.025597364
000310 a3 80 81 be cb a2 14 be 9a b9 36 bd 3c f2 20 3d
       -0.25293455 -0.14515226 -0.044610597 0.039293513
000320 9f 04 0f be f8 ff d2 bd 99 5f 37 3e 41 3e a3 bb
       -0.13966607 -0.103027284 0.17907561 -0.0049817865
000330 b4 a5 1c bd 10 42 73 be d1 67 9c bd bd 16 60 be
       -0.038243964 -0.2375567 -0.07636989 -0.21883674
000340 78 d0 99 3d b2 3b da bd 92 76 d3 bd 92 b6 9a bd
       0.075104654 -0.10655917 -0.1032535 -0.07554354
000350 d5 79 c5 3c 31 03 03 be 81 b7 93 be 14 b7 07 3e
       0.024105946 -0.12794186 -0.2885094 0.13253433
000360 56 6a 8b bd c3 8f 12 3d 36 53 d9 bd a3 60 03 3c
       -0.06807391 0.035781633 -0.10611574 0.008018645
000370 7b 1a aa bd 1c 89 9d 3d 58 ec c3 bd a0 70 95 3d
       -0.08305832 0.07692167 -0.09566563 0.07296872
000380 8c 63 52 bb d4 9c d6 3c e8 2f 7a bb 33 38 91 38
       -0.0032102792 0.026197828 -0.0038175527 6.924607e-05
000390 bd b7 f8 3d bd 58 36 3e 7d 98 e1 bd 1f f0 0c be
       0.1214442 0.17807288 -0.11015413 -0.13763474
0003a0 34 bb 8b bc fe 6e ce 3d aa 4f d0 bd 92 1b 0f 3c
       -0.017057039 0.10079764 -0.10171445 0.008734601
0003b0 8f 27 8d 3a a8 42 68 bd 23 29 0b be 77 ab b7 bc
       0.0010769236 -0.056704193 -0.13589911 -0.022420628
0003c0 5f ce bb bb 36 3f ad bd 92 2a be bd bd 7a 4b bd
       -0.0057313885 -0.08459322 -0.092854634 -0.0496776
0003d0 74 5b e8 3c 7b 29 31 be 2d 68 fc 3c 16 a9 20 be
       0.02836392 -0.1730098 0.030811394 -0.15689501
0003e0 86 21 10 3e b6 39 38 be 7e 45 00 be 79 a2 e6 bc
       0.14075288 -0.17990765 -0.12526509 -0.028153645
0003f0 10 db 70 bc b2 a4 6a 3d 58 ff bc 3d 3a 88 1e be
       -0.014700666 0.057285972 0.092283905 -0.15481654

network_body.observation_encoder.processors.0.normalizer.running_mean f4 [21]
000000 75 d9 6e 3f bc 33 89 3d d8 95 ec 3e e1 f6 6d 3f
       0.93300563 0.06699321 0.46208072 0.9295483
000010 3c 48 90 3d f8 6f ed 3e aa 0a 6b 3f 45 aa a7 3d
       0.070450276 0.46374488 0.9181315 0.08186773
000020 a4 24 f2 3e c5 3f 61 3f 23 01 f6 3d 63 80 f8 3e
       0.4729358 0.8798793 0.120119356 0.4853545
000030 cf 13 5b 3f 7f b0 13 3e 24 2c 00 3f f6 f9 3a 3f
       0.855771 0.14422797 0.50067353 0.7303766
000040 e5 0b 8a 3e 18 8d 0b 3f 5a 06 2f 3f 2f f3 a1 3e
       0.269622 0.54512167 0.68369067 0.31630847
000050 fc 0f 11 3f
       0.56665015

network_body.observation_encoder.processors.1.normalizer.running_mean f4 [39]
000000 a9 c7 08 3d 6d 73 77 3f cf 52 7e 3f 0c 7f c2 3e
       0.033393536 0.966605 0.99345106 0.37987554
000010 5f c0 1e 3f 61 61 62 3f 4b 75 1d 3f 3e 15 c5 3e
       0.62012285 0.8842984 0.615071 0.3849277
000020 28 57 5d 3f dd f0 79 3f 2c e2 c1 3c a3 cf 00 3f
       0.86461115 0.97633153 0.023667417 0.5031683
000030 3e bd 78 3f 3e 56 e8 3c 85 a2 10 3f 28 cf 7d 3f
       0.9716376 0.028361436 0.56497985 0.9914422
000040 a1 31 0c 3c 4a 16 b1 3e b2 39 7b 3f 58 c7 98 3c
       0.008556754 0.34587318 0.9813491 0.018649742
000050 6a e3 d5 3e d7 6b 7d 3f af 04 25 3c 1a 75 95 3e
       0.41775066 0.98992676 0.010071917 0.29190904
000060 85 a4 7a 3f ca 6d ab 3c bf 6c b7 3e 57 5e 7d 3f
       0.97907287 0.020926375 0.35825154 0.98972076
000070 73 65 28 3c 63 f9 8c 3e 73 7b 7a 3f 24 8f b0 3c
       0.010278094 0.27534017 0.9784462 0.02155263
000080 f2 06 ad 3e c9 16 7d 3f 9f 48 3a 3c fb 26 92 3e
       0.3379436 0.9886289 0.011369853 0.28545365
000090 89 99 7a 3f bd cc ac 3c ba 26 b1 3e
       0.97890526 0.02109372 0.3459986
