Assets/Scripts/ML Scripts/Drive.onnx (onnx, 334978 bytes, 13 tensors)

82 f4 [21]
000000 fd e1 fc 3e 0b 05 ce 3e af 15 aa 3e d0 fc fc 3e
       0.49391165 0.40238222 0.33219668 0.4941163
000010 cc e8 ce 3e f1 3f aa 3e 62 30 fc 3e 3c b7 d8 3e
       0.40411985 0.33251908 0.49255663 0.42327297
000020 58 e9 ad 3e 6d b3 fc 3e b8 ce d4 3e 92 1c ac 3e
       0.3396709 0.4935564 0.41563964 0.33615547
000030 c0 d6 f9 3e 0a de e9 3e fa 96 b5 3e 0b 51 fb 3e
       0.48796654 0.45677215 0.35466748 0.49085268
000040 6d 79 e4 3e 38 bb b0 3e 92 12 f4 3e 8d 36 f9 3e
       0.4462389 0.34517837 0.47670418 0.4867443
000050 4d eb bd 3e
       0.37093583

85 f4 [39]
000000 6f 98 f0 3e 6f 98 f0 3e 15 4b a5 3e 7c ef ff 3e
       0.46991298 0.46991298 0.32283846 0.499874
000010 79 ef ff 3e b0 a4 a7 3e fa cf f1 3e f2 cf f1 3e
       0.4998739 0.32742834 0.47228986 0.47228962
000020 e2 4c ab 3e d2 ce c8 3e cc ce c8 3e df a4 9e 3e
       0.33457094 0.3922029 0.39220273 0.30985162
000030 bf c2 95 3e b1 c2 95 3e 53 42 90 3e a7 26 9a 3e
       0.29250142 0.292501 0.281756 0.30107614
000040 9b 26 9a 3e 81 9a 86 3e 92 49 78 3e 6d 49 78 3e
       0.3010758 0.26289752 0.24246815 0.2424676
000050 2d 5d 7d 3e ec 9f 99 3e e3 9f 99 3e a7 d9 80 3e
       0.24742575 0.30004823 0.30004796 0.25166056
000060 92 18 91 3e 86 18 91 3e f2 83 85 3e bb 64 9c 3e
       0.28339058 0.28339022 0.2607723 0.305456
000070 ad 64 9c 3e 7f 36 81 3e 47 89 98 3e 39 89 98 3e
       0.3054556 0.2523689 0.29792234 0.29792193
000080 c7 19 8b 3e 47 9b a6 3e 39 9b a6 3e 3b c0 83 3e
       0.27168104 0.32540342 0.325403 0.25732598
000090 e4 c5 96 3e d6 c5 96 3e 0f 74 88 3e
       0.29447854 0.29447812 0.26651046

action_model._continuous_distribution.log_sigma f4 [1, 2]
000000 13 1e e3 c0 2d 4d b8 c0
       -7.097421 -5.759421

action_model._continuous_distribution.mu.bias f4 [2]
000000 af 70 e7 3e 96 1e f4 bb
       0.45203158 -0.007449935

action_model._continuous_distribution.mu.weight f4 [2, 256]
000000 a9 20 40 39 07 98 17 bb 38 ee 69 bc f4 92 66 3b
       0.00018322714 -0.0023131387 -0.014277987 0.0035182806
000010 e3 51 98 3a aa 00 c6 bb 8d aa 19 be 65 59 39 bd
       0.0011621084 -0.0060425596 -0.15006466 -0.04525127
000020 f3 da 4d 3b e5 82 33 3b fe 78 b8 ba a4 0f 48 ba
       0.0031411021 0.0027391252 -0.0014074144 -0.0007631725
000030 44 49 02 be 86 a4 28 3b 89 c9 ff b9 e9 bd d7 3b
       -0.12723261 0.002573283 -0.00048787546 0.0065839184
000040 87 22 00 be 8d 51 8a 3a 00 33 91 39 da c4 56 bc
       -0.12513171 0.0010552868 0.00027694553 -0.0131084565
000050 db 77 86 bb 24 92 e4 bd 6d 29 07 be 80 a2 fb bc
       -0.0041036434 -0.111606866 -0.13199396 -0.030717134
000060 da 08 2a bc 33 0c 9a bb 14 ef 07 bc b9 4c c9 bc
       -0.010378087 -0.0047011613 -0.008296747 -0.024572717
000070 1b a8 8b bb 09 13 ad 3b 82 60 20 bc 26 fe 08 ba
       -0.004261983 0.00528181 -0.009788634 -0.00052258593
000080 96 4f a6 b9 31 1c 9a bc 8f b4 7b 3c 68 73 03 3b
       -0.00031721283 -0.01881227 0.015362873 0.00200578
000090 48 b1 c2 3c 92 b2 0c bb f4 b6 e5 bc 4b 8a fb 3a
       0.023766175 -0.002146874 -0.02804134 0.0019190995
0000a0 13 be 84 ba 78 17 36 3d 59 1d db bd 28 a2 8e bd
       -0.0010127447 0.044455975 -0.10698957 -0.069645226
0000b0 53 37 a3 3c 55 07 5c bd 88 0a 5c bb 4e bd af 3b
       0.019923842 -0.05371793 -0.0033575613 0.005363143
0000c0 7b 31 1a bc c4 8e 17 be eb d1 9b b9 79 39 70 3b
       -0.009411211 -0.14800555 -0.00029720305 0.003665535
0000d0 90 86 0e be 21 6e 35 3b 5a 87 1c bb a2 7c 47 3b
       -0.13918519 0.002768405 -0.0023884387 0.0030439277
0000e0 1b af 55 bb 87 f1 11 bc b8 c6 84 3d 3c 30 e3 bc
       -0.0032605592 -0.008907682 0.06483215 -0.02773296
0000f0 a5 a9 11 bb 8c 9d d9 3b b7 e6 ae bd 93 63 19 bc
       -0.002222636 0.0066410955 -0.08540099 -0.009362119
000100 f0 58 3b 3b cd e5 81 3b 0a 99 41 bd 45 ae 69 bd
       0.0028586946 0.003964162 -0.04726509 -0.057050962
000110 e1 43 fb bc 14 a1 a3 3b 30 3b 51 3b 10 55 a3 bd
       -0.030672016 0.0049935672 0.0031926148 -0.07975209
000120 52 ea 32 ba ac 2e b9 bb c0 77 a4 3b 24 c6 20 bc
       -0.00068250776 -0.0056513157 0.005019158 -0.009812865
000130 ef cb 75 3b e9 fa 3f 3d 64 05 cd bc ef bf b6 bb
       0.0037505587 0.046870146 -0.025026985 -0.0055770795
000140 2b 6d 38 be 54 b3 0d bd 62 f8 8f 3a 05 7e 0c 3c
       -0.18010394 -0.03459485 0.0010984058 0.008574967
000150 76 e3 0e 3a d8 9a 23 bc 12 12 0d 3c 0b 0a bc 3a
       0.00054507644 -0.009985648 0.008610265 0.0014346255
000160 84 cf 92 bb d6 26 49 3c 5e d9 ce 3b c6 cc 4f bc
       -0.004480304 0.012277326 0.0063125333 -0.012683099
000170 fb 9f 44 3c 8a 02 3f 3a f5 80 3b 3c c3 7f 23 3d
       0.012001033 0.000728645 0.01144432 0.039916765
000180 ed c3 a0 bb 8e 93 8f ba 8b 44 f0 bc b3 9b 56 3a
       -0.0049061687 -0.0010954009 -0.029329559 0.0008186653
000190 45 33 88 ba 88 be ea bb f7 4e 00 bc 9c 6f 0d be
       -0.0010391256 -0.0071638264 -0.007831327 -0.13812107
0001a0 01 4a 3a bc fa 1e 8d 3b b8 65 1c bd d0 53 1a 3b
       -0.011370183 0.004306671 -0.038182944 0.0023548491
0001b0 6e a3 bc bc 5c 34 da 3c cc 77 15 bb c4 c9 a2 3b
       -0.023027148 0.026636295 -0.0022807 0.0049679
0001c0 b7 90 10 3d 86 4e f6 3c a1 4a 0e bd 45 35 ff bb
       0.03529426 0.03006674 -0.03473914 -0.0077883326
0001d0 c1 ec de 3a c2 1d 63 3b d5 18 49 39 f5 1f 7e bc
       0.0017007814 0.0034655188 0.00019178104 -0.015510549
0001e0 31 e2 9a bb f3 e3 44 bc 23 0f bd 3a 97 a0 b9 bb
       -0.004726671 -0.012017238 0.0014424067 -0.0056648958
0001f0 d6 3c 0f 3a df 49 18 3b 68 75 08 bb 2c 6e b1 3b
       0.00054640824 0.002323739 -0.0020821933 0.005414745
000200 04 92 3e bb e6 57 7e 39 32 99 f0 3a 82 c7 c6 3b
       -0.0029078731 0.00024256072 0.0018356203 0.0060662637
000210 50 e5 01 3d 28 6c 92 bd 92 b6 8a bc 6d 05 aa 3a
       0.03171283 -0.071495354 -0.01693276 0.0012971588
000220 f6 84 6a 38 b0 83 e2 b8 a0 4f e4 bb 11 6d 54 bd
       5.5913777e-05 -0.000108010485 -0.0069675 -0.051861826
000230 39 7c 71 bb ff d5 92 bb c0 20 e5 3c 01 db 80 bd
       -0.0036847724 -0.0044810767 0.027969718 -0.06291772
000240 b4 f4 cb 3c 11 d7 20 3a c0 ae bd 3b 3d 81 a3 3b
       0.024896957 0.0006135563 0.005788654 0.0049897716
000250 93 4e cf ba c8 1e 29 3b 3c 5f a8 bc 08 d7 3f 3a
       -0.0015816264 0.00258057 -0.020553224 0.0007318114
000260 a4 fc 8f ba 99 2e a3 ba c3 14 2b be 1f 76 30 bc
       -0.0010985327 -0.00124498 -0.16707139 -0.01077035
000270 96 2a b2 bc 97 f2 1c bb 5b 44 68 bc 17 fa ea 3b
       -0.021748822 -0.0023948306 -0.014176453 0.0071709263
000280 57 94 a3 3b 07 4c b0 bd 01 b4 0f bb 02 a8 ee bc
       0.0049920487 -0.08608251 -0.002192736 -0.029132847
000290 4a 95 32 bb aa b4 7b bc 08 66 90 bc 94 75 97 3c
       -0.0027249628 -0.015362898 -0.017626777 0.018488683
0002a0 e3 ac 23 bc 3f 50 bb 3a 8a 37 c5 3b 7c 8b 84 3c
       -0.00998995 0.0014290883 0.0060185837 0.016179793
0002b0 d4 df 32 3b ce 7c 26 be 89 38 06 3b d0 ce 81 bb
       0.0027294056 -0.16258547 0.0020480475 -0.0039614215
0002c0 40 8a 2d 3c 11 b4 0d be 3c 42 01 be 73 fc b3 b9
       0.010592043 -0.13838221 -0.12622923 -0.0003432963
0002d0 40 20 be 3b ac d9 0d 3c 5f 5d cd bc a9 d1 d2 3a
       0.0058021843 0.008657854 -0.025068937 0.0016084212
0002e0 f8 7c 20 bc 63 15 5f bd 60 4e 43 bd e2 01 5a bc
       -0.00979542 -0.054463755 -0.047682166 -0.013306113
0002f0 16 73 be 38 ad 48 a2 3b 7d 09 70 3b bd 8a 93 bd
       9.0813424e-05 0.0049525113 0.003662675 -0.072041966
000300 26 f9 13 3b 91 e9 85 3d 43 49 f2 bd fb 4a d7 3a
       0.0022578924 0.0653869 -0.1183038 0.0016425544
000310 73 cc 7f bc 54 6f 2c 3a 82 cc 40 3b 69 ba b0 bc
       -0.015612709 0.00065778685 0.002941877 -0.021573262
000320 34 0a 4b 3c 88 67 05 3c 39 81 c8 bb 1b 8a 23 bc
       0.012392569 0.00814236 -0.00611892 -0.009981657
000330 67 a1 93 bc 2e 60 2e bb 33 7a 94 bc ce e7 f6 bc
       -0.018021299 -0.002660762 -0.018124675 -0.03013983
000340 29 e1 58 3a 5b 6a cc bd 09 49 ee bd 23 ec 14 be
       0.00082732976 -0.09981223 -0.11635024 -0.14543204
000350 33 24 76 bc 2a 57 4d bc 51 41 b4 bd 6b 73 ae 3c
       -0.015023279 -0.012532989 -0.088015206 0.02129527
000360 55 9a 6c bd 69 c5 89 bb 14 90 2e bc 71 b7 80 3b
       -0.05776437 -0.0042044413 -0.010654468 0.003928118
000370 f6 55 fd ba d5 72 57 bd bc 6c a9 bc ec a2 2c 3b
       -0.0019327987 -0.052599747 -0.020681731 0.0026342226
000380 6b c0 fb 3c d0 2a 19 3c 6e f6 51 3a 5d e4 b9 bb
       0.0307314 0.009348586 0.0008009438 -0.005672975
000390 60 33 08 3c 54 81 0f bc 7a 4c db ba df 1f b0 bd
       0.00831303 -0.008758862 -0.0016731166 -0.08599829
0003a0 10 48 55 bd 2a b7 ca 3c 0a b0 68 39 d6 06 86 bd
       -0.052070677 0.024745543 0.00022190824 -0.065442726
0003b0 12 12 e1 b8 9c 53 85 3c 66 19 ab bd 63 56 a1 bc
       -0.00010732202 0.01627522 -0.08354454 -0.019694513
0003c0 82 d3 8b 3b 3f 2c 2e 3c e2 06 92 3c 02 e0 87 3a
       0.004267157 0.010630666 0.017825548 0.0010366442
0003d0 16 70 ab bc 19 fc 85 ba bb b6 1b bd 1e 7c ab 3c
       -0.02092747 -0.0010222226 -0.038016062 0.020933207
0003e0 9c e7 03 3c f1 e2 a5 ba 97 fd 03 bc 11 a6 75 bd
       0.008050825 -0.0012656135 -0.008056066 -0.059972826
0003f0 14 d3 b1 3b ae f5 cb 3d 92 7a 0f 3d 63 db 2d be
       0.005426774 0.09958969 0.035029 -0.1697822

action_model._discrete_distribution.branches.0.bias f4 [2]
000000 4c 24 1e 3f de 23 1e bf
       0.61774135 -0.6177348

action_model._discrete_distribution.branches.0.weight f4 [2, 256]
000000 a0 a1 2b be c2 4c 6e 3e 25 86 a3 3d 37 b4 46 3b
       -0.16760874 0.23271468 0.079845704 0.0030319819
000010 81 11 e9 bc 5a 6d 28 be 7a 84 bd bd 59 96 97 be
       -0.02845073 -0.16447964 -0.092537835 -0.29606894
000020 01 d4 45 be 12 56 4d be 7c 09 b0 be 94 8b 83 bc
       -0.19319154 -0.20052364 -0.34382236 -0.016057767
000030 a8 ce 17 be 28 1e 31 3e eb 8e de be 75 45 2d bd
       -0.14824927 0.1729666 -0.43468413 -0.042302568
000040 a4 c1 a4 be 00 3d 45 3e 16 16 07 be b7 7c 0d bf
       -0.32178986 0.19261551 -0.13192019 -0.55268425
000050 0d ff cf be 70 e5 94 3d a8 fe 23 be 89 7d d1 bc
       -0.40624276 0.07270324 -0.16015112 -0.025572555
000060 3b 20 74 be 80 de 8c be 16 ed 68 bc ba 45 41 bf
       -0.2384042 -0.27513504 -0.014216682 -0.7549702
000070 ce bf 98 bd 9e 08 fb be b8 5e 8a 3e 9b 88 84 bd
       -0.07458459 -0.49030012 0.2702539 -0.06471368
000080 75 0a ae be e1 6b 20 be 23 8f 0e 3f b7 8c 81 be
       -0.33992353 -0.15666153 0.5568716 -0.2530267
000090 19 01 85 be 68 ff e2 bc e1 ff 1a bf ad 74 30 be
       -0.259774 -0.027709678 -0.6054669 -0.17232008
0000a0 c1 21 18 bd 06 a8 0f bf dd 83 12 be e4 52 fb be
       -0.037141565 -0.5611576 -0.14308114 -0.49086678
0000b0 8d b6 88 be 68 67 3a be 0a d4 ed be 1d 56 ab 3e
       -0.26701775 -0.18203509 -0.46450835 0.33464137
0000c0 f3 4b cb be 3b 50 a9 be 8a dc 6a be a3 f1 c1 be
       -0.39706382 -0.33069023 -0.22935691 -0.37879667
0000d0 41 f4 77 be 55 6a 08 bd 25 9f 04 3c 78 d0 b9 be
       -0.24214269 -0.03330453 0.008094584 -0.36291862
0000e0 88 f8 d7 be 60 06 63 bd bc 33 8b be 60 86 d6 be
       -0.42181802 -0.055426 -0.27187908 -0.41899395
0000f0 88 64 c1 bd 65 3d 0c be e1 ba 0e bf 1d 32 96 be
       -0.09443003 -0.13695295 -0.55753905 -0.29335108
000100 30 c4 36 3e a0 25 ff bd 21 bf e0 be ab 30 87 be
       0.17848277 -0.12458348 -0.4389582 -0.26404318
000110 a7 a1 4c bd 3f 5f 84 3e 83 e8 4e 3e 33 b7 37 be
       -0.04995885 0.25853917 0.20205884 -0.17940979
000120 90 70 23 3f d7 e5 99 be a9 f6 f0 bd 85 a7 51 be
       0.6384363 -0.30058166 -0.11765797 -0.2047406
000130 11 f3 31 3f 4c 24 c9 be 8e a9 b5 be 1c 58 03 3e
       0.69511515 -0.39285505 -0.35480922 0.1282658
000140 0a ef ad be 11 87 22 be fe c4 90 be a3 0f c7 3e
       -0.33971435 -0.15871836 -0.28275293 0.38879117
000150 26 a0 7e be 42 fa eb bd 48 2c 37 3e b2 7e 22 3f
       -0.2486578 -0.11522342 0.17887986 0.6347457
000160 6e 0f 4d be ab 36 3f be 48 d1 2c bf 60 72 f2 be
       -0.20025417 -0.18673198 -0.6750684 -0.47352886
000170 ce d9 e2 be 88 ca dd be d4 76 67 3e 38 7c 12 bf
       -0.44306797 -0.43318582 0.22603923 -0.5722079
000180 e0 51 4b be dc 38 ad 3b 3e 52 1a be 35 19 9d be
       -0.19855452 0.005286319 -0.15070435 -0.30683294
000190 2e f1 84 bc c7 3d c0 be b2 9e 99 be bc 2b 64 be
       -0.016228285 -0.37547132 -0.30003887 -0.22282308
0001a0 d2 2a be be 71 61 b6 3d 40 7b 27 be 54 b7 1a be
       -0.37142044 0.08905304 -0.1635561 -0.15108997
0001b0 9d 60 0a 3e b8 aa 06 be be 05 03 3f 4d 9b 14 bf
       0.13513418 -0.13151062 0.51180637 -0.5804947
0001c0 70 ec a1 be 31 01 37 be 68 ed 3e be d5 ed f3 bd
       -0.316257 -0.17871548 -0.18645251 -0.11910597
0001d0 0b f8 b3 3e ab c7 38 be 9c 7a 21 bd cf 1a 01 bf
       0.3515018 -0.18044917 -0.03942357 -0.5043153
0001e0 52 b1 83 3d 78 aa 8b be 66 7d d7 be 2b 40 a4 be
       0.064303055 -0.27278495 -0.4208786 -0.32080206
0001f0 4f e9 9d 3d f9 e3 4c 3f 94 13 25 3e 55 08 38 be
       0.07710516 0.8003536 0.1612075 -0.17971928
000200 44 4b 70 3e 48 ca d8 be 32 33 37 bd c5 b7 45 be
       0.23466212 -0.42341828 -0.044726558 -0.19308384
000210 ab f8 20 be 5d 39 87 3c af 66 95 bd e8 14 a5 bd
       -0.1571986 0.016506845 -0.07294976 -0.08060628
000220 08 85 cc be 06 ea cb 3e ab 95 85 be 08 5c d5 be
       -0.39945245 0.39826983 -0.2609075 -0.41671777
000230 7d cf a5 bd f9 38 03 3e 57 d3 6a 3f cf 7e 94 be
       -0.08096216 0.12814702 0.9172873 -0.29002997
000240 d0 63 5e bf e4 93 42 be ae bb 72 3c 2c f9 c9 be
       -0.8687105 -0.19001728 0.014815254 -0.39447916
000250 10 0d cc bd c4 17 4c be d4 71 0b bf 91 f1 bc bd
       -0.09963429 -0.19930941 -0.5447056 -0.09225763
000260 92 c2 fc be f9 cb f2 3e 37 42 c6 be 4b 12 cb be
       -0.49367195 0.47421244 -0.38722393 -0.39662394
000270 a6 64 43 be 1f 2e 8f 3d 93 c6 b8 be a8 8c 44 3e
       -0.19081363 0.06991219 -0.36089 0.19194281
000280 18 a2 0c bf ff 03 3b be d9 d4 1f bf ca 36 cd be
       -0.54934835 -0.18263243 -0.62434155 -0.40080863
000290 f3 0f 88 3d f3 6b c7 be 3e b6 15 bf 7e 81 63 be
       0.06643667 -0.38949546 -0.58481205 -0.22217366
0002a0 b4 c1 3d be 54 61 a4 3e b6 54 38 be cf eb af be
       -0.18530923 0.32105505 -0.18001065 -0.34359595
0002b0 5a c1 57 3e cd 0a 4d be 9e 97 8d 3f 84 78 cd 3e
       0.21069852 -0.20023651 1.1061895 0.4013101
0002c0 ac 2a 29 3e a7 ca e6 be aa 0c a0 be d7 a0 ce be
       0.16520184 -0.45076486 -0.31259662 -0.40357086
0002d0 43 36 a2 be e7 55 ba 3d 64 46 28 be a7 67 13 bf
       -0.31682023 0.09098416 -0.16433102 -0.57580036
0002e0 25 25 3c be 3c ed c7 bd 4c f4 9b be 39 c5 9d bc
       -0.18373545 -0.09762046 -0.3045982 -0.019259082
0002f0 63 ed 8a be d2 70 d0 3d eb 0a 5b be c0 08 40 be
       -0.27134237 0.10177769 -0.21390884 -0.18753338
000300 85 fa e1 3d bc 61 70 be d1 2b 0b be 8c f5 3c 3f
       0.11034111 -0.23474783 -0.13590933 0.73812175
000310 10 98 b5 be 3e 9c 11 3f f5 a8 a4 3e 6a 7c 06 bf
       -0.35467577 0.5687903 0.32160154 -0.5253359
000320 0c 2b 73 be 8a 8a 9f 3c 3b 34 13 be 44 19 a0 be
       -0.2374689 0.01947524 -0.14375393 -0.31269276
000330 63 fd 86 3d a3 d5 5f bf 5f 5f 4c be 3c 9a b1 bd
       0.065912984 -0.8743536 -0.19958256 -0.08671996
000340 39 22 8d bd 56 ab ff bd 6b 24 8c bd 48 eb 74 be
       -0.06891293 -0.124838516 -0.06842884 -0.23917878
000350 1e f1 8e be 6d 88 bc bd 67 ce 8f be ed 33 b3 be
       -0.27918333 -0.09205709 -0.2808716 -0.35000554
000360 0e 46 96 be 74 37 8f bb 28 05 15 be fe 27 80 bd
       -0.29350322 -0.004370624 -0.14552748 -0.06257628
000370 d3 5d 03 bf c5 f9 f5 be 13 8e a9 be 18 b8 1a 3e
       -0.5131504 -0.48042122 -0.33116207 0.15109289
000380 55 5d 9c 3d cb c6 31 3e 50 31 6e be 61 47 82 bd
       0.07634989 0.1736099 -0.23260999 -0.06361271
000390 8b 2a 4e be b2 a3 ab be 56 ed 2d be e4 9f a5 be
       -0.20133416 -0.33523327 -0.16985068 -0.3234855
0003a0 20 8d be be eb c2 ad be 83 3f 7f 3e d8 5f be be
       -0.37217045 -0.33937773 0.24926572 -0.37182498
0003b0 37 dd a7 be 1f e0 19 be ba 3d 14 bf 0a f7 f1 3d
       -0.3278596 -0.15026902 -0.5790669 0.11814697
0003c0 63 84 de be c5 e0 8b bd 0d 36 e4 bd 16 fa 9a bd
       -0.43460378 -0.06829981 -0.11143122 -0.07567231
0003d0 00 fb 1c 3e da b4 2a 3d 65 9c 09 bf 62 5e 03 bf
       0.15330124 0.04167638 -0.53754264 -0.5131589
0003e0 f5 7e 71 bd 4e 6c 2b 3d 5b 01 13 bf f7 33 19 3d
       -0.058958966 0.041851334 -0.57423943 0.037403073
0003f0 b7 3b b6 3e 6d 1e f2 bc 60 19 6e be 9c af e4 be
       0.35592434 -0.029555524 -0.23251867 -0.4466523

network_body._body_endoder.seq_layers.0.bias f4 [256]
000000 7e 7d 02 be a1 d8 7e bd 2e f3 32 be d6 98 9e 3c
       -0.12743184 -0.062218312 -0.17475578 0.019359987
000010 82 0e be bd 4a d4 b5 3c 2c 26 84 bd e3 32 68 b9
       -0.09280111 0.022195954 -0.06452593 -0.00022144201
000020 80 e4 c1 bd c0 6e 52 3c 80 c3 52 3d cf 7e 48 3d
       -0.09467411 0.012843788 0.051455975 0.04894906
000030 d6 af 8d bd 5c 59 58 be 69 5a aa bd 73 8b 5c 3d
       -0.06918304 -0.21127838 -0.083180256 0.053843927
000040 c1 e3 23 be 46 40 33 bd 12 a4 f5 3d 05 2c 7c bd
       -0.1600485 -0.043762468 0.119941846 -0.061565418
000050 24 e3 ce 3d b3 e8 11 3e 39 3f 81 bd fd 34 49 3e
       0.101019174 0.14248924 -0.06310887 0.1964912
000060 c7 63 27 3e d4 9e 92 bd 66 3a 45 be c8 c3 1c bd
       0.16346656 -0.071592 -0.19260558 -0.03827265
000070 2e 22 62 3d 78 a4 2e 3d fe dc 93 bb ba 69 34 3d
       0.055208378 0.04263732 -0.0045124283 0.04404614
000080 a2 b1 13 3b 3e c9 06 bd 4c 05 4c be f5 e4 39 3d
       0.0022536297 -0.032906763 -0.19923896 0.045384366
000090 0d 96 b3 3d e8 bd 45 bd d8 fe 65 3e b5 91 c2 bd
       0.08768854 -0.04827681 0.22460496 -0.09500448
0000a0 ec c6 db 3d 9b 81 f6 ba e9 47 5b 3d a4 6e 33 3d
       0.10731301 -0.0018806936 0.053535376 0.043806687
0000b0 84 6c b3 3e d3 a6 00 be 7b 7e d2 3d 7a 83 7e be
       0.35043728 -0.12563638 0.102780305 -0.24854842
0000c0 c4 8e 92 ba 01 79 15 3d 0e 42 c5 3d 30 8a c8 bd
       -0.0011181463 0.03649235 0.096317396 -0.09791982
0000d0 6a 16 28 3e 4d 01 e7 bd 7c 5e c4 bd c5 30 39 3d
       0.164148 -0.11279545 -0.09588334 0.045212526
0000e0 52 1f 8b 3e fb 36 10 3d 4a 61 92 bd 0b 93 81 bb
       0.27172333 0.035208683 -0.07147463 -0.0039542965
0000f0 bd 1b 23 bd f3 05 68 bd c5 2c b2 bc 7e dd 82 bd
       -0.039821375 -0.0566463 -0.021749863 -0.063899025
000100 1d a4 e9 3c c8 9d 41 be 17 cb c6 3c d6 22 8c 3d
       0.028520638 -0.18907845 0.024266763 0.06842582
000110 24 54 08 3e 3d 58 70 bb 1d c1 d1 bd 69 4c 70 bd
       0.13313347 -0.0036673688 -0.102419116 -0.05866662
000120 e6 4d 52 3c 02 04 a2 3d 52 bf 27 3e e4 ff 5f bd
       0.012835955 0.07910921 0.16381577 -0.054687396
000130 3a b5 b5 bd 5e 94 e1 3a 50 00 de 3d 10 96 34 bd
       -0.08872457 0.0017210355 0.10839903 -0.044088423
000140 dd 86 86 be 66 d3 0e bd 96 ba 40 be 34 f8 13 3d
       -0.26274768 -0.034869574 -0.18821177 0.036125377
000150 7e e6 22 bd c5 e7 cb bc 21 4c fe bd cb ac 47 3e
       -0.039770596 -0.02489079 -0.12416864 0.19499509
000160 3d 10 2c bd 00 4a c3 bd 20 7f 89 bb ac 43 a2 3c
       -0.042007674 -0.09535599 -0.0041960627 0.01980766
000170 53 8a 76 3d 6e a6 83 bd 83 11 af bd a3 43 46 3e
       0.06019051 -0.06428228 -0.08548262 0.19361739
000180 70 c6 a5 bd 28 06 10 bd d9 3b df bc f1 22 24 be
       -0.080944896 -0.03516212 -0.027250217 -0.16028954
000190 4c 5a 99 bd ca 6f da 3b dd 65 9b bd b6 6c d4 bc
       -0.07487926 0.0066661583 -0.07587788 -0.025930744
0001a0 d2 1f cb bd 75 02 6c be b5 56 57 3e cb 22 95 3e
       -0.099181786 -0.23047812 0.2102917 0.29128107
0001b0 ef b7 1b be 40 40 42 3d 16 df ff 3d e7 b1 66 bd
       -0.15206884 0.047424555 0.12493722 -0.056322005
0001c0 1d 76 0e be a8 b7 b6 bd bc 0e 39 3e bf ab e0 bd
       -0.13912244 -0.089217484 0.18072027 -0.10970258
0001d0 e4 4e f5 3c 50 63 fc 3b 03 eb 70 3b 59 0f 98 bd
       0.029944845 0.0077022687 0.0036761172 -0.07424802
0001e0 a5 a6 0f be 01 9c 8e 3d 80 a7 f7 3d 80 8b de 3c
       -0.14028414 0.06963349 0.12092495 0.027166128
0001f0 f1 08 ec 3e 86 67 eb bd d8 0f 89 bd 09 60 8c bd
       0.46100572 -0.11494355 -0.06692475 -0.06854255
000200 d6 f5 0a 3e 56 64 35 ba 74 52 1f 3e fb 41 b1 3d
       0.13570341 -0.0006919553 0.15558797 0.08655163
000210 c1 3b ca 3c 3e 9c 62 3d aa 36 92 3d 3c 9d 03 3e
       0.024686696 0.055324785 0.071393326 0.12852949
000220 db 07 19 be 75 6f 21 be 0b 23 c0 3a 3c a3 a2 3d
       -0.14944403 -0.15765174 0.0014658881 0.07941291
000230 6a a4 2e bc ff 20 52 bd c1 89 2c 3b d2 e4 11 3d
       -0.010659317 -0.051301 0.0026327225 0.03561861
000240 b0 cb 14 3d 05 bf a1 bd 96 c0 7d bc 6b 54 29 3c
       0.036327064 -0.07897762 -0.015487811 0.010335068
000250 2d 11 95 3d 59 a8 8a bd f9 8a b9 3d 86 e3 db 3c
       0.07278667 -0.06770391 0.0905971 0.02684189
000260 e0 a1 c1 3d 43 b5 94 bd bb 8f bc bd 5f 42 bd 3e
       0.09454703 -0.072611354 -0.09207102 0.369647
000270 10 b4 a7 3e d1 86 bb bd e6 b8 91 bd e6 cf 0c bd
       0.32754564 -0.091565736 -0.07115345 -0.034377955
000280 92 e5 bb bd a4 ab e3 bd 2f 98 29 3e e4 c4 01 be
       -0.091746464 -0.11116722 0.1656196 -0.12672764
000290 cf f4 8c 3d 9e b2 5b bc 45 38 08 3e 6e 2c d8 bd
       0.06882631 -0.013409285 0.13302715 -0.10555349
0002a0 2b a0 ea bd cf a1 a7 bb 70 93 55 3c 50 9a d7 bd
       -0.11456331 -0.0051157246 0.01303564 -0.1052748
0002b0 b3 34 88 bd a1 19 2d be 46 dc 23 be b6 d3 03 3e
       -0.066506766 -0.16904308 -0.16001996 0.1287373
0002c0 82 22 cd bd 92 1e c2 3d 94 54 bd bd 64 73 c9 bc
       -0.100163475 0.09478487 -0.092446476 -0.024591155
0002d0 2d b5 f7 3c f2 db 0c be ae fc ce bd e7 ad 1e 3d
       0.030237759 -0.13755777 -0.101067886 0.038740065
0002e0 f8 60 cf 3d f0 72 8e 3d 07 89 09 be ba 32 9a bc
       0.10125917 0.06955516 -0.13431178 -0.018823016
0002f0 8c c9 1c bd 0a cb 5e be 00 38 43 bd 83 64 4c be
       -0.038278148 -0.21757141 -0.047660828 -0.19960217
000300 ae e5 f1 bd dd 27 3a be 5a e6 3d 3d 80 39 45 bd
       -0.11811386 -0.18179269 0.04636226 -0.04815054
000310 18 48 04 3e 87 b7 a9 bb b9 4b e0 bb 12 c0 e5 bd
       0.12918127 -0.005179349 -0.0068449643 -0.11218275
000320 36 e8 08 be 20 1f 15 be 1c 49 08 3b 6b e6 a9 3d
       -0.13369831 -0.14562654 0.002079553 0.08295902
000330 b9 82 c3 3d f0 10 80 3e 74 23 eb bd d2 77 ab bd
       0.09546418 0.25012922 -0.114813715 -0.08372463
000340 17 2b 02 3c 81 27 16 3c 14 8f fd bd e7 53 77 bd
       0.007944844 0.009164692 -0.123808056 -0.06038275
000350 13 06 ad 3d 46 c9 41 be 7b e4 cd 3d 89 f3 10 bd
       0.08448424 -0.18924436 0.10053345 -0.035388503
000360 6c 64 1d 3d 45 39 99 bd 5d d5 d5 bd b5 ca 3b 3e
       0.038425848 -0.074816264 -0.104410864 0.18339045
000370 8d 2b b8 bd 9a fe 8d 3c 13 89 2a bd 68 33 8a 3d
       -0.08992682 0.017333318 -0.04163463 0.06748086
000380 cc 7a b8 3d e5 3b 2a 3e 08 2e a2 bd ca a3 2f bd
       0.09007797 0.1662441 -0.07918936 -0.04288081
000390 8e af 1d 3c 60 56 de bc 78 9a 86 3e 18 84 b5 bd
       0.009624375 -0.027140796 0.26289725 -0.088630855
0003a0 da 2c 3f be 90 21 d1 3c 2d 82 18 be 54 a9 d2 3c
       -0.18669453 0.0255287 -0.14893408 0.025715508
0003b0 a3 01 f4 3d 30 20 4c be ea 0d 65 3d 7a 7a 99 bc
       0.11914375 -0.19934154 0.055921473 -0.01873516
0003c0 5a c2 8e bb 4e c2 88 3d 21 c1 fa 3d f2 35 c5 bd
       -0.0043566646 0.06677686 0.12243868 -0.0962943
0003d0 48 99 fa bd 8f 45 52 bb 4e d1 58 bd 05 bf ab 3d
       -0.12236267 -0.0032084917 -0.052933984 0.083860435
0003e0 b4 c2 de bd f8 7f cc bd 58 07 d2 3c b2 9a 17 be
       -0.108769804 -0.099853456 0.025638267 -0.14805105
0003f0 db 12 00 be c5 83 99 3d 63 a6 03 3d 85 c1 97 3c
       -0.12507193 0.07495836 0.0321411 0.018524894

network_body._body_endoder.seq_layers.0.weight f4 [256, 61]
000000 ba 36 ab 3e 67 80 ed 3c 94 07 01 3c 5d c9 9b 3e
       0.3344019 0.028991891 0.007875342 0.30427065
000010 cd ed e6 3d c2 f7 64 3e 8f c8 55 3e 62 42 cd bd
       0.11275826 0.22360137 0.20877288 -0.10022427
000020 a8 59 6e 3e a8 98 2b 3e c5 7f 4f 3e 10 c8 7f bd
       0.23276389 0.16757452 0.20263584 -0.062446654
000030 a5 ae 75 3e ea cf 69 be 79 a2 49 3d 3b a9 ed bd
       0.23992403 -0.22833219 0.04922721 -0.11604544
000040 7f 39 1e be 5e 92 31 bd b8 be bd 3e d0 34 d0 bd
       -0.1545162 -0.043352477 0.3705957 -0.10166323
000050 5f 49 a4 3e 00 db 7d be f4 76 95 3e 69 e3 15 3e
       0.32087228 -0.24790573 0.29192317 0.14637531
000060 c0 f7 18 3e 05 99 95 bd 36 79 32 3e e7 a4 82 be
       0.14938259 -0.07304577 0.17429051 -0.25516436
000070 fb e6 dc 3d 19 05 d2 be cc 7f 47 3d 12 89 14 bd
       0.107862435 -0.41019514 0.04870586 -0.036263533
000080 24 bf 96 be 5a d8 ab bd 43 44 68 3d 3d 7a e2 be
       -0.29442704 -0.08390875 0.056705724 -0.44233885
000090 6f e3 97 3d e5 ae ef bd ea f7 c4 3d d4 ad 90 3d
       0.074164264 -0.1170328 0.09617598 0.07064405
0000a0 91 d2 67 bd 8c 63 42 be b7 50 43 be 47 99 1d 3e
       -0.056597296 -0.18983287 -0.19073759 0.15390502
0000b0 0f d4 ec 3d 70 39 d7 bd a3 88 1a ba ff 58 19 3e
       0.115638845 -0.10509002 -0.0005894994 0.14975356
0000c0 af ef 1c be 7f 35 16 be 7c 25 d5 3d d1 b6 c5 bd
       -0.15325807 -0.14668845 0.1040754 -0.0965401
0000d0 07 87 29 bd 9a 51 37 be ee 67 9f bd 44 5d 82 3e
       -0.041388538 -0.17902222 -0.07783495 0.2546178
0000e0 b0 cd d4 3d e5 08 8f 3e 6c 3e 42 be 0d f6 48 be
       0.10390794 0.27936473 -0.18969125 -0.19625111
0000f0 f3 97 b7 bd fd 99 29 3e e9 de 4b bc 9c af 8a be
       -0.08964529 0.16562648 -0.012443283 -0.27087104
000100 9e 77 a0 3e bc 1e 09 bd d7 65 8c be 8d 79 3b bc
       0.3134126 -0.033476576 -0.27421448 -0.011442554
000110 39 a0 0d 3d dd 93 1e bf 26 db bb 3e f7 1a 94 3e
       0.03457663 -0.6194437 0.36690634 0.28926823
000120 8b 05 ec be 59 d8 92 3e b7 1b 9d bd 58 c8 97 be
       -0.4609798 0.28680685 -0.07671302 -0.29645038
000130 8b 72 b0 3e 8f f4 ec bd 7a 68 12 be cd 45 8d bd
       0.3446239 -0.11570083 -0.14297667 -0.06898079
000140 83 3d da 3d 04 4c 2b 3e ef 66 c3 bd f5 37 cf 3e
       0.10656264 0.16728216 -0.095411174 0.4047238
000150 f3 06 15 3e b4 42 d7 be fa ee ce 3e 30 b5 99 3e
       0.14553432 -0.42043078 0.404167 0.30021048
000160 bd 80 81 3d 60 9d 9a 3d 2e 11 4f 3e 25 e0 06 3e
       0.06323383 0.07549548 0.20221397 0.13171442
000170 cd 71 26 be 11 8b 06 3f b3 84 42 be ce 51 96 3e
       -0.16254349 0.5255595 -0.18995933 0.29359287
000180 58 20 8f bc dc a0 7a be c9 33 95 bb 5e 6b d0 3d
       -0.017471477 -0.24475425 -0.0045532924 0.10176729
000190 e0 e2 b6 be be bd 66 be 41 97 8c bc 05 ac 2f bd
       -0.35719967 -0.22533318 -0.017161967 -0.04288866
0001a0 19 c4 1f be 1f 5b 08 bd 6e 5e 72 3c 14 bb 62 3e
       -0.15602149 -0.033290025 0.014793022 0.22141677
0001b0 d0 53 57 bd 25 ba a4 bd 48 9d 9e bd 17 36 7c be
       -0.052570164 -0.08043317 -0.07744843 -0.24630009
0001c0 77 e1 cf bc 69 d3 b7 3d 12 1d 53 bd 25 87 30 3e
       -0.025376065 0.0897587 -0.051541395 0.17239054
0001d0 c9 3d 61 3c 24 00 57 be 9c 77 9d bd 2c b5 9b 3d
       0.013747641 -0.20996147 -0.07688829 0.07602915
0001e0 20 15 7f 3c 1b 20 a1 3d 64 4b 06 3e 2b ea 8b bd
       0.015569001 0.07867452 0.13114697 -0.06831773
0001f0 6b 8d 73 3e dd 7c e3 3d 98 b4 87 bd ef 1f 96 3e
       0.23784415 0.111078 -0.066262424 0.29321238
000200 af c8 7f 3d c3 39 4e be 62 a5 0f bd 0c 9a 1d 3e
       0.062447246 -0.20139222 -0.03506983 0.15390795
000210 37 42 b5 3d 8e 88 48 3e bc 55 96 3e 7b 40 2a be
       0.0885052 0.19583341 0.29362285 -0.1662616
000220 29 a6 38 3e 1e f1 95 3b 90 a5 02 3e 8b 4f 94 3e
       0.18032135 0.0045758625 0.1275847 0.28966936
000230 5d 59 64 bd 4b 4f a0 bd e8 c7 af 3e 82 89 61 be
       -0.055749286 -0.07827624 0.34332204 -0.22025111
000240 a6 10 93 3c a8 20 9c 3d 7d ee ec 3d 88 dc 69 3d
       0.017952275 0.07623416 0.115689255 0.05709508
000250 26 63 62 be 31 41 f8 bd 46 d6 2c 3e 42 9f 57 be
       -0.22108135 -0.12121809 0.16878614 -0.21056846
000260 15 ee f1 3c af 87 6d 3e dd 45 1e 3e 6f dd 5b bd
       0.029532472 0.2319629 0.15456338 -0.053677972
000270 ff 6a a6 3d f4 eb 95 be 18 35 70 3c c7 9b 30 3e
       0.08125877 -0.2928158 0.014661096 0.17246924
000280 69 65 4f 3e 91 a8 0e be c3 72 9f 3c 3f ea 25 be
       0.20253529 -0.1393149 0.019463902 -0.16202639
000290 64 cd de bd 8d 65 e5 bc f7 60 dd bd 3a f9 08 be
       -0.10879019 -0.028002525 -0.1080951 -0.13376322
0002a0 b0 71 bd bd 81 8f cd 3d 20 f3 9c bd 31 17 be 3d
       -0.092502 0.10037137 -0.0766356 0.09281767
0002b0 a0 90 42 be 9e d0 12 3e 97 b5 68 3d 4c 1b 6c bd
       -0.19000483 0.14337394 0.056813803 -0.05764322
0002c0 10 61 8b bc a3 d8 37 be 7b d4 a5 be 08 aa b4 3d
       -0.017014056 -0.17953734 -0.32388672 0.088214934
0002d0 e9 d9 6a 3d b4 3e 34 3e 1b 9d 18 3f 2c f9 16 3e
       0.05733672 0.17602044 0.59614724 0.14743489
0002e0 26 7f 14 be dc 5d 56 be a6 8f cd 3d 80 dd 19 be
       -0.14501628 -0.20934242 0.100371644 -0.15025902
0002f0 25 93 46 3e cd e5 61 3e a7 fd 0f be 63 27 14 be
       0.19392069 0.22060318 -0.14061604 -0.1446815
000300 89 6a 93 3d da 68 31 3e ed 96 e6 3d e9 4b 94 3d
       0.07198054 0.17325154 0.112592556 0.07241041
000310 76 e3 c1 3c 71 e9 c8 bc 45 24 53 bd b9 34 6e 3d
       0.023668032 -0.024525376 -0.05154826 0.05815575
000320 94 d5 87 3e 01 38 ff bd 75 9e d6 3d 63 71 6b be
       0.26530135 -0.12461854 0.10479442 -0.22992472
000330 fa a2 1a be 9a 06 94 3e e5 33 aa bd 66 72 27 3e
       -0.15101233 0.28911287 -0.08310679 0.16352233
000340 8a 1d 33 bd 8f d9 a9 3e 7a a7 2d 3d 3b 90 82 be
       -0.043729343 0.33173797 0.042396046 -0.25500664
000350 01 b9 09 3f 26 31 46 bc ae e6 29 3d 45 f1 f3 be
       0.5379792 -0.012096679 0.04147976 -0.47645012
000360 cb 3b 81 3e 93 05 5b 3e c1 67 01 3d 17 76 92 3d
       0.2524093 0.21388845 0.031593088 0.0715143
000370 b4 94 df bd 3a 02 20 be 51 0b 62 3e 5e 48 7b 3d
       -0.10917035 -0.1562585 0.2207463 0.06134831
000380 46 ea 66 be 40 f5 50 3e 19 43 80 3d 8a 63 ed bb
       -0.22550306 0.20406055 0.06262798 -0.007244532
000390 3c 66 2c 3e ef c7 19 bd 46 b3 0f bf c0 c9 d0 bd
       0.16835874 -0.037544187 -0.56132925 -0.10194731
0003a0 58 37 05 3e 60 42 d4 3c f5 06 a3 3d 11 9a 9d 3d
       0.13009393 0.025910556 0.07960311 0.076954015
0003b0 a3 57 ea be 1b 0e 76 3d b1 03 91 3d ba 1c 8a 3e
       -0.45769987 0.060072046 0.07080782 0.26975042
0003c0 60 a8 8e 3e 6e 93 c0 bd 3a 13 df be 81 c3 f7 3e
       0.27862835 -0.0940312 -0.43569356 0.48391345
0003d0 f0 52 b6 3e a6 bb ff 3d 71 3f d6 be 03 5f 28 3e
       0.3561015 0.12486963 -0.41845277 0.16442494
0003e0 58 c9 bc bc 8d bf e5 be dc 8b 0e 3e 0f 4c 1a be
       -0.023045227 -0.44872704 0.1392054 -0.15068077
0003f0 28 50 e0 be 0d 0e 94 3e 58 45 b0 3d b8 7c b3 be
       -0.43811154 0.2891697 0.08606976 -0.3505609

network_body._body_endoder.seq_layers.2.bias f4 [256]
000000 32 85 4b bd a0 78 6f bd f4 67 91 bd d0 1b 3c be
       -0.04968757 -0.058464646 -0.070999056 -0.18369985
000010 96 dd a0 bd e9 3d 8c bd f8 f5 28 be 05 47 3a be
       -0.07854764 -0.06847746 -0.1650008 -0.18191154
000020 63 1f cd bd 66 40 a2 bd 16 fa ff bc 99 1d 14 3b
       -0.10015752 -0.07922439 -0.03124718 0.002260065
000030 0e bc 1c be 67 b2 fd bd d8 46 4d be 50 73 db bd
       -0.15306112 -0.12387543 -0.20046556 -0.107153535
000040 41 5a a4 be 79 12 50 3a 39 93 c8 3c d2 2a 23 be
       -0.32100108 0.0007937323 0.024484264 -0.15934303
000050 dd b4 b3 bc 76 da 72 be 0e 36 5b be 43 38 ec bd
       -0.021936828 -0.23716149 -0.21407339 -0.115341686
000060 71 c4 3e be 1b d0 3e be 6e 80 b8 bd a5 ed 98 bd
       -0.18629624 -0.18634073 -0.09008871 -0.07467202
000070 e9 2e 13 be f1 aa c6 bd b1 68 81 3c 6c 67 42 bc
       -0.14373364 -0.09700573 0.015796991 -0.011865478
000080 8e f6 ab bd 89 46 6b be f2 57 c7 bd f9 9a 35 be
       -0.08396636 -0.22976126 -0.09733571 -0.17734899
000090 0a d3 66 be bc 88 67 bc 6c 6e 31 be fb 05 3a bd
       -0.22541443 -0.014131721 -0.17327279 -0.04541586
0000a0 6e bf 11 be f1 49 4b bd b8 c9 e2 bd e2 07 c0 bd
       -0.14233181 -0.049631063 -0.11073631 -0.093765035
0000b0 07 ac 13 be ab 6b 1d be d5 5f 25 be 0c 50 29 3d
       -0.14421092 -0.15373103 -0.16149838 0.041336104
0000c0 2d c4 50 be 2b b6 d0 bd e2 c1 c8 bc c6 1a 58 be
       -0.20387335 -0.10190996 -0.024506513 -0.21103963
0000d0 63 92 02 bd 01 c1 43 be 14 5d a7 bd 9a 95 35 be
       -0.031877887 -0.19116594 -0.0817205 -0.1773285
0000e0 4a 17 da bc 0c 9c 13 be c3 aa 28 be 57 66 06 be
       -0.026622433 -0.14414996 -0.1647139 -0.13124977
0000f0 0b 7b d3 bc 71 d3 52 bd 63 bf 39 be 94 89 ae bd
       -0.025815507 -0.051471177 -0.18139414 -0.08522335
000100 58 60 5b bd 09 eb d7 bd e6 2c 45 be 42 55 19 be
       -0.053558677 -0.10542876 -0.19255409 -0.1497393
000110 5d af 00 be 1d 77 11 bd 28 d7 05 bd d0 8b 2b be
       -0.12566896 -0.035513986 -0.032675892 -0.16752553
000120 e7 f5 6d bd 94 82 2b be a2 19 db bd 53 a8 92 bd
       -0.05809584 -0.1674903 -0.106982484 -0.071610115
000130 80 da 23 3d e0 67 2f be de 6d 5d be 51 19 46 3c
       0.0400033 -0.17129469 -0.21623942 0.012090997
000140 46 e6 15 be 06 df a9 bd 93 35 66 be c8 84 1b bd
       -0.14638624 -0.082944915 -0.22481374 -0.037968427
000150 98 99 d7 bd 61 f5 89 bc 76 9f 0a be ee 6c 09 be
       -0.105273426 -0.016840639 -0.13537392 -0.1342046
000160 d9 77 7b bd c6 b7 4d be a1 0d da bd 6b 5e 15 bd
       -0.061393593 -0.20089635 -0.10647131 -0.036466997
000170 ab 50 c4 bd 19 25 47 be bb 64 4c bd 7f 71 a3 bd
       -0.09585699 -0.19447745 -0.04990075 -0.07980632
000180 46 14 3f bd 81 a2 45 bd ed 63 13 be 58 ef 00 be
       -0.046650194 -0.04825068 -0.14393587 -0.12591302
000190 e3 cc 6c 3c a6 63 54 be cc d5 3f be d9 f7 a7 bd
       0.014453146 -0.20741138 -0.18733901 -0.0820157
0001a0 e5 4e a4 bd ba e2 ff bd 80 bd b2 bd ad 94 8a bd
       -0.080228604 -0.124944165 -0.087275505 -0.06766639
0001b0 c3 79 b9 bd 42 7c d4 bd d6 2c 1c be 6d b0 4a be
       -0.09056427 -0.10375263 -0.15251479 -0.19793864
0001c0 88 ee 53 be 8d 57 f8 bd 81 60 22 be 71 65 a3 bd
       -0.20696461 -0.12126074 -0.15857126 -0.07978333
0001d0 48 e0 db bd 27 26 18 be b7 bc 12 be 42 9a 4c be
       -0.10736138 -0.14858304 -0.14329801 -0.1998072
0001e0 be 02 78 bd 15 6f c3 bd c5 f5 41 be d4 06 cc bd
       -0.06054949 -0.095426716 -0.1894141 -0.0996224
0001f0 7c 2b 15 be d0 97 de bd be ae 87 bd 43 b0 91 bd
       -0.14567369 -0.108688 -0.06625126 -0.071136974
000200 91 10 95 bd 1b c2 72 be 64 2f 45 ba 42 c6 12 be
       -0.072785504 -0.23706858 -0.00075220154 -0.14333442
000210 34 12 47 be 7b a8 c5 bd af 08 0b be 87 53 48 be
       -0.19440538 -0.09651276 -0.13577531 -0.19563113
000220 7e 7b 7c bd 30 8e c6 bd 25 a6 3c be fb fe 7e bd
       -0.06164121 -0.09695089 -0.18422754 -0.062254887
000230 ad a2 9c bd 05 ce 06 be 29 e0 09 bd 7f 61 d9 bd
       -0.076482154 -0.13164528 -0.03366104 -0.10614299
000240 14 c5 5a be 42 a6 90 bd ba 6b 72 bd 93 c6 c3 bd
       -0.21364242 -0.07062961 -0.059184767 -0.095593594
000250 87 92 2c be 16 e5 a2 bd 00 3c 31 be 3b ec ac bd
       -0.16852771 -0.07953851 -0.17308044 -0.08443495
000260 28 ad 92 3a 4c fa 97 bd 11 c3 f6 bd 02 cd 4e be
       0.0011190521 -0.07420787 -0.12048925 -0.20195392
000270 c2 b1 0c be 37 33 58 3b a4 af 0f be 4d dc ff bc
       -0.13739684 0.003298951 -0.14031845 -0.031232977
000280 99 58 4f bc a5 93 b1 bd c9 2c 03 be c1 76 8c be
       -0.012655401 -0.08670739 -0.12810053 -0.27434352
000290 50 54 4a bd 90 5e 05 be ad da 02 be c4 ae 35 be
       -0.049396813 -0.13024354 -0.1277873 -0.17742449
0002a0 9d 9e eb bc b0 86 09 be 8f c1 11 be d4 03 12 3d
       -0.028762156 -0.13430285 -0.14233993 0.035648182
0002b0 48 de a0 bb 2a ac 38 bd 50 ab d8 bd 0a b7 b1 bd
       -0.0049093105 -0.045086063 -0.1057955 -0.0867749
0002c0 b8 3e a9 3c 2c 7a 4e bd 82 fc 94 be 9f 02 17 be
       0.02065979 -0.05040948 -0.29098898 -0.14747094
0002d0 0f e7 50 be 71 67 3f bd 9b 76 38 bd a5 82 8b be
       -0.20400642 -0.04672951 -0.045034986 -0.2724811
0002e0 e4 06 01 be bc e0 3a be e4 d7 07 be ad 86 d5 bd
       -0.12600285 -0.18249792 -0.1326595 -0.10426078
0002f0 a7 f3 4f be 08 78 80 bd 81 cf ca bd 52 e4 1f be
       -0.2030779 -0.06272894 -0.099028595 -0.15614441
000300 0d 91 42 be d2 a6 b1 bd fb 73 16 be 23 16 f8 bc
       -0.19000645 -0.086743966 -0.1469268 -0.030283993
000310 a9 b8 4e be 48 a6 e1 bd 60 d5 b2 bd a8 3e 1f be
       -0.2018763 -0.11018044 -0.08732104 -0.15551245
000320 66 77 c1 bd 30 fb 51 bd 03 3a 6a bc a0 46 a0 bd
       -0.094466016 -0.05126494 -0.014296058 -0.07825971
000330 bd d5 d2 bd 84 52 98 bd 77 6d 29 be 11 89 89 bd
       -0.102946736 -0.074376136 -0.16545664 -0.067155965
000340 1b a3 ff 3c 66 6d 0f be ea 5b e0 bd 4b 03 8e be
       0.031205704 -0.14006576 -0.10955031 -0.27736887
000350 90 f3 7a be 24 2c c5 bd 35 a1 d9 bd c0 58 66 be
       -0.24506974 -0.0962756 -0.10626451 -0.22494793
000360 dc 33 ed bd b4 38 b9 bd 01 24 1b bd b4 f2 13 be
       -0.11582157 -0.090440184 -0.037876133 -0.14448053
000370 ad 51 a7 bd f5 70 d7 bd 01 8d 10 be ed c9 4f be
       -0.08169875 -0.10519592 -0.14116289 -0.20291872
000380 5a 18 e7 bd 76 97 a5 bd d4 ca 3a be 56 27 dc bd
       -0.112839416 -0.080855295 -0.18241435 -0.1074969
000390 10 35 21 be 2b f2 f6 bd 2e 15 62 bd e3 fb 08 be
       -0.15742898 -0.120579086 -0.05519598 -0.13377337
0003a0 d4 5c 55 3a 97 32 46 be 1c ba 29 bc 3f 51 f7 bd
       0.00081391376 -0.19355236 -0.010359313 -0.12076043
0003b0 ff 9c 47 be c9 28 4e bd d1 6d 17 be 6e bb 89 bd
       -0.19493483 -0.050331865 -0.14787985 -0.067252025
0003c0 d0 44 aa be 25 b2 0b be 40 be 26 be 83 19 b4 3c
       -0.33255625 -0.13642175 -0.16283512 0.021984821
0003d0 c7 6c a0 bd b8 e8 14 bc cf 57 7a be 72 e5 c5 bd
       -0.07833248 -0.009088688 -0.24447559 -0.09662904
0003e0 19 2d dc 3c bb 3b c8 bc 7f 39 00 be 1a 40 fe bd
       0.026876973 -0.024442544 -0.12521933 -0.1241457
0003f0 84 6b 31 bd 3e a6 1d be f1 36 0a be 27 27 2f be
       -0.043315426 -0.15395448 -0.13497521 -0.17104779

network_body._body_endoder.seq_layers.2.weight f4 [256, 256]
000000 f6 e7 e1 bd db ee c9 be 66 4b d8 3c 17 0b 7a be
       -0.11030571 -0.39440045 0.02640314 -0.24418293
000010 11 91 92 bc 79 f5 11 3d 62 dc 96 bc 9f 0f 49 3d
       -0.017891439 0.03563449 -0.018415634 0.049087163
000020 65 b1 4e 3e 40 5a 25 be 97 95 ac bc dc 2b cb bd
       0.20184858 -0.16147709 -0.021067424 -0.09920475
000030 e5 69 2f bd 3f ab 6e 3d 1c 4b ac bd c4 1e 38 3c
       -0.0428256 0.05826878 -0.084127635 0.011237804
000040 a0 a6 81 bd e0 41 85 3d b3 c9 e5 39 91 62 9d be
       -0.06330609 0.06506705 0.0004382856 -0.30739263
000050 74 2c df 3d 3c 8a f1 3c a7 1b 2e 3b 17 ab 19 bd
       0.10897151 0.02948486 0.0026566775 -0.03751668
000060 22 66 ea 3d 23 56 33 bd e0 c8 25 be c8 45 97 bd
       0.114452615 -0.04378332 -0.16189909 -0.073863566
000070 d0 25 52 bc 27 a6 d8 3d 7f 69 0b be b3 85 08 3e
       -0.012826398 0.10578566 -0.13614462 0.13332252
000080 34 d8 fa bd 6e 99 85 bd f5 df 04 be f5 31 ec bb
       -0.12248269 -0.06523405 -0.12976058 -0.007208104
000090 8b ac 4d be 46 17 02 be 1c ed 28 be 7d e2 cb bd
       -0.20085351 -0.1270419 -0.164967 -0.099553086
0000a0 1f c3 23 be b3 6f b1 bc 35 a8 07 be a8 da 91 bd
       -0.15992402 -0.021659708 -0.1324776 -0.071217835
0000b0 9a d9 8c bb 7a 64 bc bc c0 d3 7f 3d 7b 1d 49 3c
       -0.004298401 -0.02299713 0.0624578 0.012275095
0000c0 89 9f 37 be 31 5b 01 be 88 39 d0 bd 98 ab 90 ba
       -0.17931952 -0.12632443 -0.10167223 -0.0011037467
0000d0 70 5d 96 bd aa f9 f3 bc da 5f bf bd 74 de 0b be
       -0.073420405 -0.029782135 -0.09344454 -0.13659078
0000e0 ea 92 ea bd 44 5f 00 3d 6b 74 23 bd 5c 5e 77 3d
       -0.11453803 0.031340852 -0.039905947 0.060392722
0000f0 27 2b 05 3e 16 b0 0a be 33 c5 53 be 0b aa 6b 3d
       0.13004743 -0.13543734 -0.20680694 0.057535212
000100 fd 3f ce bd 7d 27 44 3d e2 ef a8 3d c5 4b 65 be
       -0.100707985 0.04788922 0.08248879 -0.22392185
000110 f3 40 41 bd 24 35 81 be 38 0f 0c 3e 83 c2 8d 3d
       -0.04718108 -0.25235856 0.1367768 0.06921866
000120 c3 a4 a4 3d 66 62 c7 bd 5d 81 2e be ad 82 ee bd
       0.08039238 -0.09735565 -0.17041536 -0.11646018
000130 a6 f4 f9 3c 98 3a fe bc ad d8 3b 3e f7 92 48 3c
       0.030512165 -0.031033799 0.18344374 0.01224207
000140 38 e8 f3 bc a1 cb d0 bd a4 c0 23 be 39 ff 42 bd
       -0.029773816 -0.10195089 -0.15991455 -0.04760668
000150 38 ac 2b 3d 8f 98 5d be 7e c8 50 bd c4 0b 11 3e
       0.041912287 -0.21640228 -0.050972454 0.14164644
000160 25 a7 98 bc f6 c3 b8 bd 40 27 be bd 18 62 21 be
       -0.018634388 -0.090217516 -0.0928483 -0.15760076
000170 b8 3d 2a be 0a 2a 67 be c8 b4 64 bd ae e0 83 be
       -0.16625106 -0.2257463 -0.05583647 -0.25757354
000180 6e da 81 3d 92 ec 99 bd 0e 6f 85 3d 92 77 91 3e
       0.0634049 -0.07515825 0.065153226 0.28411537
000190 8d 93 b8 bc 55 c8 21 bd e2 87 68 3d 67 6f 0f be
       -0.022531295 -0.039497692 0.056770213 -0.1400734
0001a0 f4 a9 1b 3d 41 0c 11 3e bf 4d 1b 3d eb 5d 51 bd
       0.038003877 0.1416483 0.03791594 -0.051114958
0001b0 cf e0 65 3d 98 1e 88 3e 67 6d 81 3e aa 87 e6 bc
       0.056122597 0.2658584 0.2527878 -0.028140862
0001c0 4d c5 93 bd 1c 05 b7 be 46 50 04 bd 00 de 1b be
       -0.072153665 -0.35746086 -0.032303117 -0.15221405
0001d0 78 3d ee bd 3c fd d2 3d 42 de 30 3d 3c 6d 9c 3d
       -0.11632818 0.10302207 0.04318071 0.07638022
0001e0 f0 01 0a bd 92 6c f6 bd 4d aa 3b be a6 da 6f be
       -0.033693254 -0.12032427 -0.18326683 -0.23423252
0001f0 33 72 5c be ce 30 4c 3e fb f6 17 3e e0 c0 07 be
       -0.21527939 0.19940493 0.1484031 -0.1325717
000200 cd 1c 13 bc de 89 1d 3e c7 ee 84 bd 45 bf 8d bc
       -0.008979035 0.15384623 -0.06490856 -0.017303118
000210 16 1e ca bd 09 f5 06 be 05 3b ba bd fb 74 86 bd
       -0.0986902 -0.13179411 -0.09093288 -0.06565281
000220 4a 92 07 3e ed 99 4d be bb 8a 18 be 2f b5 90 be
       0.13239399 -0.2007825 -0.14896671 -0.28263232
000230 49 12 48 3e c4 96 43 bd 0c 69 92 be 52 61 b1 bd
       0.19538225 -0.047751203 -0.2859577 -0.086611405
000240 6d 7a e5 bc eb 6a dc bd a2 c2 d5 bd 6a 81 81 3d
       -0.028012479 -0.107625805 -0.10437514 0.06323512
000250 e8 4d 57 bd f8 4b be 3c 44 6c a8 3d 1b 78 8c 3d
       -0.05256453 0.023229584 0.08223775 0.06858846
000260 14 fe 11 be a6 7e e7 3d f6 68 28 be 89 56 4c be
       -0.1425708 0.11303453 -0.1644629 -0.19954886
000270 a9 14 17 be e8 81 ae bd ad 8a ee bd c4 89 de bd
       -0.14753975 -0.085208714 -0.11647544 -0.108661205
000280 ba 17 28 3c 20 05 32 be 85 ab 35 bd c4 0f 28 3e
       0.010259563 -0.17384768 -0.044353027 0.16412264
000290 97 1f 87 bc 57 e9 67 3b 00 6d ec 3b f4 39 a3 bb
       -0.016494555 0.0035386884 0.0072151423 -0.004981274
0002a0 82 cf a4 be 71 5d 43 bd 27 88 b2 bb 86 ec 8a bc
       -0.32189566 -0.047696535 -0.0054483595 -0.016958486
0002b0 99 70 51 3d dd 50 86 3d c3 1e f5 bd 30 8d d5 3c
       0.051132772 0.06558392 -0.11968758 0.0260683
0002c0 5d 07 e3 3d 15 31 0d 3e cf 25 c8 3d 2a c1 4c 3d
       0.11085389 0.13788255 0.097728364 0.049988903
0002d0 29 97 10 bd 4d 15 07 be 21 d9 d7 bd 22 a7 75 bd
       -0.035300408 -0.1319172 -0.10539461 -0.059973843
0002e0 21 02 09 be a6 50 8e be a0 f8 c3 bd d8 f4 84 be
       -0.13379718 -0.27795905 -0.09568906 -0.2596805
0002f0 c1 39 9c bd f0 26 a9 3d 16 98 0c ba c2 f3 95 be
       -0.07628203 0.0825938 -0.0005363239 -0.29287535
000300 fe 88 35 be 7b 5c df bb 59 ed 90 3c dc f2 a2 bd
       -0.1772804 -0.0068164445 0.017691301 -0.07956478
000310 0e 22 d9 3d 9f 8f 87 bc 2d ee 62 3d 7c 9b 26 bc
       0.106021985 -0.016547976 0.055402923 -0.010168906
000320 6d 85 09 be c9 23 21 be a2 8e 3b bd 9b 53 c3 bc
       -0.13429804 -0.15736307 -0.045790322 -0.023843577
000330 12 53 ac bb 10 46 20 bc d4 24 53 bd a0 04 96 bd
       -0.005258926 -0.009782329 -0.051548794 -0.07325101
000340 3f e6 16 3d 15 78 cc bd eb 40 0a 3e e3 c1 be 3d
       0.036840674 -0.09983841 0.13501327 0.09314325
000350 22 62 65 bd b5 0f 4c be e3 ac 92 bd ef e4 06 3d
       -0.05600179 -0.19927867 -0.07161882 0.03293317
000360 2b f7 93 be 99 25 95 be 06 87 44 be 76 df 90 be
       -0.28899512 -0.29130247 -0.19192132 -0.28295487
000370 ae ab 91 bd fa c9 dc 3d 69 b3 63 3d c8 26 62 be
       -0.071128234 0.107807115 0.05559102 -0.22085106
000380 1e 59 41 bd 43 23 3b 3d f0 12 e8 bc cd 77 36 3c
       -0.04720413 0.045687925 -0.028329343 0.011136961
000390 7b bb a1 bc 5f 78 ef bc 76 5d 1a 3d 78 ee 75 bd
       -0.019742718 -0.029232202 0.037686788 -0.060041875
0003a0 29 2c 3c 3e eb 03 93 3e f4 6a 32 3d 3e b8 91 3b
       0.18376221 0.28713927 0.04355903 0.004447012
0003b0 63 6e ab bd fa 64 7a 3d 72 87 78 be 6c 74 ab be
       -0.08370664 0.061131455 -0.24270418 -0.3348726
0003c0 7e 18 1b be 71 5a 3b be 3b 90 9e bd 8e dd 3b bd
       -0.15146062 -0.1829622 -0.077423535 -0.045865588
0003d0 b9 ec 49 3e 6a 6b 2c be 25 40 4e 3e 8d e3 20 3e
       0.19719209 -0.1683785 0.20141657 0.15711804
0003e0 cc 8e a3 bc 9e 52 06 bc 64 30 d5 3d a1 6b ff 3d
       -0.019965552 -0.008198408 0.104096204 0.124717005
0003f0 63 48 03 be 95 5b 4d be 65 f0 9c bd 6a 70 5e 3e
       -0.12820582 -0.20054467 -0.07663039 0.2172257

network_body.observation_encoder.processors.0.normalizer.running_mean f4 [21]
000000 30 2c d8 3e 12 14 50 3e 22 e8 fd 3e 6a d7 d8 3e
       0.42221212 0.20320156 0.49591166 0.42351848
000010 8f 81 52 3e 55 26 ff 3e 9b fd d3 3e 3c 74 6f 3e
       0.20557235 0.49833933 0.41404423 0.23384184
000020 ec 3b 02 3f 8a 08 d7 3e e8 66 63 3e e7 7c 03 3f
       0.50872684 0.41998702 0.22207224 0.5136246
000030 76 2c c8 3e d9 df 97 3e 8d d7 09 3f f0 40 cf 3e
       0.3909642 0.2966297 0.5384453 0.4047923
000040 3d 85 8c 3e 2c a2 0b 3f db c4 b2 3e 96 71 c5 3e
       0.27445403 0.5454433 0.34915814 0.38563222
000050 02 66 15 3f
       0.58358777

network_body.observation_encoder.processors.1.normalizer.running_mean f4 [39]
000000 45 89 a8 3e 4d bb 2b 3f 1f 0f 50 3f f6 3f fa 3e
       0.32917228 0.67082673 0.8127307 0.48876923
000010 00 e0 02 3f 75 1e 43 3f 34 05 2a 3f 73 f5 ab 3e
       0.51123047 0.7621835 0.6641419 0.335857
000020 34 03 28 3f 56 64 4f 3f ad 6e 42 3e 1c 74 1a 3f
       0.6562989 0.81012475 0.18987532 0.6033342
000030 df cf 67 3f c3 80 c1 3d b0 ce ef 3e 62 31 66 3f
       0.9055156 0.094483875 0.46837378 0.899191
000040 ba 74 ce 3d 39 91 f2 3e 3d f1 6f 3f c2 75 80 3d
       0.100808576 0.4737642 0.93727475 0.062724605
000050 d8 73 c3 3e 1f 64 66 3f 78 df cc 3d f4 51 d8 3e
       0.3817432 0.8999652 0.10003561 0.42250025
000060 82 74 69 3f 86 5b b4 3d ff 1b b8 3e 61 56 65 3f
       0.911934 0.08806519 0.3595886 0.8958493
000070 ce 4c d5 3d f0 3b d3 3e 00 cc 66 3f d6 9f c9 3d
       0.1041504 0.41256666 0.9015503 0.098449394
000080 d2 d2 b8 3e dc 2e 61 3f 8b 88 f6 3d 7c a7 df 3e
       0.36098343 0.87962127 0.12037762 0.43682468
000090 fe 71 67 3f 30 70 c4 3d d1 8f be 3e
       0.90408313 0.095917106 0.37219098
